{"modelTopology":{"node":[{"input":[],"attr":{"value":{"tensor":{"floatVal":[],"doubleVal":[],"intVal":[],"stringVal":[],"scomplexVal":[],"int64Val":[],"boolVal":[],"uint32Val":[],"uint64Val":[],"dtype":1,"tensorShape":{"dim":[{"size":"1024"}]}}},"dtype":{"type":1}},"name":"bn_stage3_block2_branch2c/bn_stage3_block2_branch2c/sub","op":"Const"},{"input":[],"attr":{"dtype":{"type":1},"value":{"tensor":{"floatVal":[],"doubleVal":[],"intVal":[],"stringVal":[],"scomplexVal":[],"int64Val":[],"boolVal":[],"uint32Val":[],"uint64Val":[],"dtype":1,"tensorShape":{"dim":[{"size":"1024"}]}}}},"name":"bn_stage3_block1_branch2c/bn_stage3_block1_branch2c/sub","op":"Const"},{"input":[],"attr":{"value":{"tensor":{"floatVal":[],"doubleVal":[],"intVal":[],"stringVal":[],"scomplexVal":[],"int64Val":[],"boolVal":[],"uint32Val":[],"uint64Val":[],"dtype":1,"tensorShape":{"dim":[{"size":"1024"}]}}},"dtype":{"type":1}},"name":"ArithmeticOptimizer/AddOpsRewrite_Leaf_0_eltwise_stage3_block0","op":"Const"},{"input":[],"attr":{"value":{"tensor":{"floatVal":[],"doubleVal":[],"intVal":[],"stringVal":[],"scomplexVal":[],"int64Val":[],"boolVal":[],"uint32Val":[],"uint64Val":[],"dtype":1,"tensorShape":{"dim":[{"size":"1"},{"size":"1"},{"size":"512"},{"size":"1024"}]}}},"dtype":{"type":1}},"name":"conv_stage3_block0_proj_shortcut/weights","op":"Const"},{"input":[],"attr":{"value":{"tensor":{"floatVal":[],"doubleVal":[],"intVal":[],"stringVal":[],"scomplexVal":[],"int64Val":[],"boolVal":[],"uint32Val":[],"uint64Val":[],"dtype":1,"tensorShape":{"dim":[{"size":"1024"}]}}},"dtype":{"type":1}},"name":"conv_stage3_block0_proj_shortcut/biases","op":"Const"},{"input":[],"attr":{"value":{"tensor":{"floatVal":[],"doubleVal":[],"intVal":[],"stringVal":[],"scomplexVal":[],"int64Val":[],"boolVal":[],"uint32Val":[],"uint64Val":[],"dtype":1,"tensorShape":{"dim":[{"size":"1024"}]}}},"dtype":{"type":1}},"name":"bn_stage3_block0_proj_shortcut/bn_stage3_block0_proj_shortcut/mul","op":"Const"},{"input":[],"attr":{"value":{"tensor":{"floatVal":[],"doubleVal":[],"intVal":[],"stringVal":[],"scomplexVal":[],"int64Val":[],"boolVal":[],"uint32Val":[],"uint64Val":[],"dtype":1,"tensorShape":{"dim":[{"size":"512"}]}}},"dtype":{"type":1}},"name":"bn_stage2_block5_branch2c/bn_stage2_block5_branch2c/sub","op":"Const"},{"input":[],"attr":{"dtype":{"type":1},"value":{"tensor":{"floatVal":[],"doubleVal":[],"intVal":[],"stringVal":[],"scomplexVal":[],"int64Val":[],"boolVal":[],"uint32Val":[],"uint64Val":[],"dtype":1,"tensorShape":{"dim":[{"size":"512"}]}}}},"name":"bn_stage2_block4_branch2c/bn_stage2_block4_branch2c/sub","op":"Const"},{"input":[],"attr":{"value":{"tensor":{"floatVal":[],"doubleVal":[],"intVal":[],"stringVal":[],"scomplexVal":[],"int64Val":[],"boolVal":[],"uint32Val":[],"uint64Val":[],"dtype":1,"tensorShape":{"dim":[{"size":"512"}]}}},"dtype":{"type":1}},"name":"bn_stage2_block3_branch2c/bn_stage2_block3_branch2c/sub","op":"Const"},{"input":[],"attr":{"value":{"tensor":{"floatVal":[],"doubleVal":[],"intVal":[],"stringVal":[],"scomplexVal":[],"int64Val":[],"boolVal":[],"uint32Val":[],"uint64Val":[],"dtype":1,"tensorShape":{"dim":[{"size":"512"}]}}},"dtype":{"type":1}},"name":"bn_stage2_block2_branch2c/bn_stage2_block2_branch2c/sub","op":"Const"},{"input":[],"attr":{"value":{"tensor":{"floatVal":[],"doubleVal":[],"intVal":[],"stringVal":[],"scomplexVal":[],"int64Val":[],"boolVal":[],"uint32Val":[],"uint64Val":[],"dtype":1,"tensorShape":{"dim":[{"size":"512"}]}}},"dtype":{"type":1}},"name":"bn_stage2_block1_branch2c/bn_stage2_block1_branch2c/sub","op":"Const"},{"input":[],"attr":{"value":{"tensor":{"floatVal":[],"doubleVal":[],"intVal":[],"stringVal":[],"scomplexVal":[],"int64Val":[],"boolVal":[],"uint32Val":[],"uint64Val":[],"dtype":1,"tensorShape":{"dim":[{"size":"512"}]}}},"dtype":{"type":1}},"name":"ArithmeticOptimizer/AddOpsRewrite_Leaf_0_eltwise_stage2_block0","op":"Const"},{"input":[],"attr":{"value":{"tensor":{"floatVal":[],"doubleVal":[],"intVal":[],"stringVal":[],"scomplexVal":[],"int64Val":[],"boolVal":[],"uint32Val":[],"uint64Val":[],"dtype":1,"tensorShape":{"dim":[{"size":"1"},{"size":"1"},{"size":"256"},{"size":"512"}]}}},"dtype":{"type":1}},"name":"conv_stage2_block0_proj_shortcut/weights","op":"Const"},{"input":[],"attr":{"value":{"tensor":{"floatVal":[],"doubleVal":[],"intVal":[],"stringVal":[],"scomplexVal":[],"int64Val":[],"boolVal":[],"uint32Val":[],"uint64Val":[],"dtype":1,"tensorShape":{"dim":[{"size":"512"}]}}},"dtype":{"type":1}},"name":"conv_stage2_block0_proj_shortcut/biases","op":"Const"},{"input":[],"attr":{"value":{"tensor":{"floatVal":[],"doubleVal":[],"intVal":[],"stringVal":[],"scomplexVal":[],"int64Val":[],"boolVal":[],"uint32Val":[],"uint64Val":[],"dtype":1,"tensorShape":{"dim":[{"size":"512"}]}}},"dtype":{"type":1}},"name":"bn_stage2_block0_proj_shortcut/bn_stage2_block0_proj_shortcut/mul","op":"Const"},{"input":[],"attr":{"value":{"tensor":{"floatVal":[],"doubleVal":[],"intVal":[],"stringVal":[],"scomplexVal":[],"int64Val":[],"boolVal":[],"uint32Val":[],"uint64Val":[],"dtype":1,"tensorShape":{"dim":[{"size":"256"}]}}},"dtype":{"type":1}},"name":"bn_stage1_block3_branch2c/bn_stage1_block3_branch2c/sub","op":"Const"},{"input":[],"attr":{"value":{"tensor":{"floatVal":[],"doubleVal":[],"intVal":[],"stringVal":[],"scomplexVal":[],"int64Val":[],"boolVal":[],"uint32Val":[],"uint64Val":[],"dtype":1,"tensorShape":{"dim":[{"size":"256"}]}}},"dtype":{"type":1}},"name":"bn_stage1_block2_branch2c/bn_stage1_block2_branch2c/sub","op":"Const"},{"input":[],"attr":{"value":{"tensor":{"floatVal":[],"doubleVal":[],"intVal":[],"stringVal":[],"scomplexVal":[],"int64Val":[],"boolVal":[],"uint32Val":[],"uint64Val":[],"dtype":1,"tensorShape":{"dim":[{"size":"256"}]}}},"dtype":{"type":1}},"name":"bn_stage1_block1_branch2c/bn_stage1_block1_branch2c/sub","op":"Const"},{"input":[],"attr":{"value":{"tensor":{"floatVal":[],"doubleVal":[],"intVal":[],"stringVal":[],"scomplexVal":[],"int64Val":[],"boolVal":[],"uint32Val":[],"uint64Val":[],"dtype":1,"tensorShape":{"dim":[{"size":"256"}]}}},"dtype":{"type":1}},"name":"ArithmeticOptimizer/AddOpsRewrite_Leaf_0_eltwise_stage1_block0","op":"Const"},{"input":[],"attr":{"value":{"tensor":{"floatVal":[],"doubleVal":[],"intVal":[],"stringVal":[],"scomplexVal":[],"int64Val":[],"boolVal":[],"uint32Val":[],"uint64Val":[],"dtype":1,"tensorShape":{"dim":[{"size":"1"},{"size":"1"},{"size":"128"},{"size":"256"}]}}},"dtype":{"type":1}},"name":"conv_stage1_block0_proj_shortcut/weights","op":"Const"},{"input":[],"attr":{"value":{"tensor":{"floatVal":[],"doubleVal":[],"intVal":[],"stringVal":[],"scomplexVal":[],"int64Val":[],"boolVal":[],"uint32Val":[],"uint64Val":[],"dtype":1,"tensorShape":{"dim":[{"size":"256"}]}}},"dtype":{"type":1}},"name":"conv_stage1_block0_proj_shortcut/biases","op":"Const"},{"input":[],"attr":{"value":{"tensor":{"floatVal":[],"doubleVal":[],"intVal":[],"stringVal":[],"scomplexVal":[],"int64Val":[],"boolVal":[],"uint32Val":[],"uint64Val":[],"dtype":1,"tensorShape":{"dim":[{"size":"256"}]}}},"dtype":{"type":1}},"name":"bn_stage1_block0_proj_shortcut/bn_stage1_block0_proj_shortcut/mul","op":"Const"},{"input":[],"attr":{"value":{"tensor":{"floatVal":[],"doubleVal":[],"intVal":[],"stringVal":[],"scomplexVal":[],"int64Val":[],"boolVal":[],"uint32Val":[],"uint64Val":[],"dtype":1,"tensorShape":{"dim":[{"size":"128"}]}}},"dtype":{"type":1}},"name":"bn_stage0_block2_branch2c/bn_stage0_block2_branch2c/sub","op":"Const"},{"input":[],"attr":{"value":{"tensor":{"floatVal":[],"doubleVal":[],"intVal":[],"stringVal":[],"scomplexVal":[],"int64Val":[],"boolVal":[],"uint32Val":[],"uint64Val":[],"dtype":1,"tensorShape":{"dim":[{"size":"128"}]}}},"dtype":{"type":1}},"name":"bn_stage0_block1_branch2c/bn_stage0_block1_branch2c/sub","op":"Const"},{"input":[],"attr":{"value":{"tensor":{"floatVal":[],"doubleVal":[],"intVal":[],"stringVal":[],"scomplexVal":[],"int64Val":[],"boolVal":[],"uint32Val":[],"uint64Val":[],"dtype":1,"tensorShape":{"dim":[{"size":"128"}]}}},"dtype":{"type":1}},"name":"ArithmeticOptimizer/AddOpsRewrite_Leaf_0_eltwise_stage0_block0","op":"Const"},{"input":[],"attr":{"value":{"tensor":{"floatVal":[],"doubleVal":[],"intVal":[],"stringVal":[],"scomplexVal":[],"int64Val":[],"boolVal":[],"uint32Val":[],"uint64Val":[],"dtype":1,"tensorShape":{"dim":[{"size":"1"},{"size":"1"},{"size":"64"},{"size":"128"}]}}},"dtype":{"type":1}},"name":"conv_stage0_block0_proj_shortcut/weights","op":"Const"},{"input":[],"attr":{"dtype":{"type":1},"value":{"tensor":{"floatVal":[],"doubleVal":[],"intVal":[],"stringVal":[],"scomplexVal":[],"int64Val":[],"boolVal":[],"uint32Val":[],"uint64Val":[],"dtype":1,"tensorShape":{"dim":[{"size":"128"}]}}}},"name":"conv_stage0_block0_proj_shortcut/biases","op":"Const"},{"input":[],"attr":{"value":{"tensor":{"floatVal":[],"doubleVal":[],"intVal":[],"stringVal":[],"scomplexVal":[],"int64Val":[],"boolVal":[],"uint32Val":[],"uint64Val":[],"dtype":1,"tensorShape":{"dim":[{"size":"128"}]}}},"dtype":{"type":1}},"name":"bn_stage0_block0_proj_shortcut/bn_stage0_block0_proj_shortcut/mul","op":"Const"},{"input":[],"attr":{"shape":{"shape":{"dim":[{"size":"1"},{"size":"224"},{"size":"224"},{"size":"3"}]}},"dtype":{"type":1}},"name":"data","op":"Placeholder"},{"input":[],"attr":{"dtype":{"type":1},"value":{"tensor":{"floatVal":[],"doubleVal":[],"intVal":[],"stringVal":[],"scomplexVal":[],"int64Val":[],"boolVal":[],"uint32Val":[],"uint64Val":[],"dtype":1,"tensorShape":{"dim":[{"size":"7"},{"size":"7"},{"size":"3"},{"size":"64"}]}}}},"name":"conv_1/weights","op":"Const"},{"input":[],"attr":{"value":{"tensor":{"floatVal":[],"doubleVal":[],"intVal":[],"stringVal":[],"scomplexVal":[],"int64Val":[],"boolVal":[],"uint32Val":[],"uint64Val":[],"dtype":1,"tensorShape":{"dim":[{"size":"64"}]}}},"dtype":{"type":1}},"name":"conv_1/biases","op":"Const"},{"input":[],"attr":{"value":{"tensor":{"floatVal":[],"doubleVal":[],"intVal":[],"stringVal":[],"scomplexVal":[],"int64Val":[],"boolVal":[],"uint32Val":[],"uint64Val":[],"dtype":1,"tensorShape":{"dim":[{"size":"64"}]}}},"dtype":{"type":1}},"name":"bn_1/bn_1/mul","op":"Const"},{"input":[],"attr":{"value":{"tensor":{"floatVal":[],"doubleVal":[],"intVal":[],"stringVal":[],"scomplexVal":[],"int64Val":[],"boolVal":[],"uint32Val":[],"uint64Val":[],"dtype":1,"tensorShape":{"dim":[{"size":"64"}]}}},"dtype":{"type":1}},"name":"bn_1/bn_1/sub","op":"Const"},{"input":[],"attr":{"value":{"tensor":{"floatVal":[],"doubleVal":[],"intVal":[],"stringVal":[],"scomplexVal":[],"int64Val":[],"boolVal":[],"uint32Val":[],"uint64Val":[],"dtype":1,"tensorShape":{"dim":[{"size":"1"},{"size":"1"},{"size":"64"},{"size":"32"}]}}},"dtype":{"type":1}},"name":"conv_stage0_block0_branch2a/weights","op":"Const"},{"input":[],"attr":{"value":{"tensor":{"floatVal":[],"doubleVal":[],"intVal":[],"stringVal":[],"scomplexVal":[],"int64Val":[],"boolVal":[],"uint32Val":[],"uint64Val":[],"dtype":1,"tensorShape":{"dim":[{"size":"32"}]}}},"dtype":{"type":1}},"name":"conv_stage0_block0_branch2a/biases","op":"Const"},{"input":[],"attr":{"value":{"tensor":{"floatVal":[],"doubleVal":[],"intVal":[],"stringVal":[],"scomplexVal":[],"int64Val":[],"boolVal":[],"uint32Val":[],"uint64Val":[],"dtype":1,"tensorShape":{"dim":[{"size":"32"}]}}},"dtype":{"type":1}},"name":"bn_stage0_block0_branch2a/bn_stage0_block0_branch2a/mul","op":"Const"},{"input":[],"attr":{"dtype":{"type":1},"value":{"tensor":{"floatVal":[],"doubleVal":[],"intVal":[],"stringVal":[],"scomplexVal":[],"int64Val":[],"boolVal":[],"uint32Val":[],"uint64Val":[],"dtype":1,"tensorShape":{"dim":[{"size":"32"}]}}}},"name":"bn_stage0_block0_branch2a/bn_stage0_block0_branch2a/sub","op":"Const"},{"input":[],"attr":{"value":{"tensor":{"floatVal":[],"doubleVal":[],"intVal":[],"stringVal":[],"scomplexVal":[],"int64Val":[],"boolVal":[],"uint32Val":[],"uint64Val":[],"dtype":1,"tensorShape":{"dim":[{"size":"3"},{"size":"3"},{"size":"32"},{"size":"32"}]}}},"dtype":{"type":1}},"name":"conv_stage0_block0_branch2b/weights","op":"Const"},{"input":[],"attr":{"value":{"tensor":{"floatVal":[],"doubleVal":[],"intVal":[],"stringVal":[],"scomplexVal":[],"int64Val":[],"boolVal":[],"uint32Val":[],"uint64Val":[],"dtype":1,"tensorShape":{"dim":[{"size":"32"}]}}},"dtype":{"type":1}},"name":"conv_stage0_block0_branch2b/biases","op":"Const"},{"input":[],"attr":{"value":{"tensor":{"floatVal":[],"doubleVal":[],"intVal":[],"stringVal":[],"scomplexVal":[],"int64Val":[],"boolVal":[],"uint32Val":[],"uint64Val":[],"dtype":1,"tensorShape":{"dim":[{"size":"32"}]}}},"dtype":{"type":1}},"name":"bn_stage0_block0_branch2b/bn_stage0_block0_branch2b/mul","op":"Const"},{"input":[],"attr":{"value":{"tensor":{"floatVal":[],"doubleVal":[],"intVal":[],"stringVal":[],"scomplexVal":[],"int64Val":[],"boolVal":[],"uint32Val":[],"uint64Val":[],"dtype":1,"tensorShape":{"dim":[{"size":"32"}]}}},"dtype":{"type":1}},"name":"bn_stage0_block0_branch2b/bn_stage0_block0_branch2b/sub","op":"Const"},{"input":[],"attr":{"value":{"tensor":{"floatVal":[],"doubleVal":[],"intVal":[],"stringVal":[],"scomplexVal":[],"int64Val":[],"boolVal":[],"uint32Val":[],"uint64Val":[],"dtype":1,"tensorShape":{"dim":[{"size":"1"},{"size":"1"},{"size":"32"},{"size":"128"}]}}},"dtype":{"type":1}},"name":"conv_stage0_block0_branch2c/weights","op":"Const"},{"input":[],"attr":{"value":{"tensor":{"floatVal":[],"doubleVal":[],"intVal":[],"stringVal":[],"scomplexVal":[],"int64Val":[],"boolVal":[],"uint32Val":[],"uint64Val":[],"dtype":1,"tensorShape":{"dim":[{"size":"128"}]}}},"dtype":{"type":1}},"name":"conv_stage0_block0_branch2c/biases","op":"Const"},{"input":[],"attr":{"dtype":{"type":1},"value":{"tensor":{"floatVal":[],"doubleVal":[],"intVal":[],"stringVal":[],"scomplexVal":[],"int64Val":[],"boolVal":[],"uint32Val":[],"uint64Val":[],"dtype":1,"tensorShape":{"dim":[{"size":"128"}]}}}},"name":"bn_stage0_block0_branch2c/bn_stage0_block0_branch2c/mul","op":"Const"},{"input":[],"attr":{"value":{"tensor":{"floatVal":[],"doubleVal":[],"intVal":[],"stringVal":[],"scomplexVal":[],"int64Val":[],"boolVal":[],"uint32Val":[],"uint64Val":[],"dtype":1,"tensorShape":{"dim":[{"size":"1"},{"size":"1"},{"size":"128"},{"size":"32"}]}}},"dtype":{"type":1}},"name":"conv_stage0_block1_branch2a/weights","op":"Const"},{"input":[],"attr":{"value":{"tensor":{"floatVal":[],"doubleVal":[],"intVal":[],"stringVal":[],"scomplexVal":[],"int64Val":[],"boolVal":[],"uint32Val":[],"uint64Val":[],"dtype":1,"tensorShape":{"dim":[{"size":"32"}]}}},"dtype":{"type":1}},"name":"conv_stage0_block1_branch2a/biases","op":"Const"},{"input":[],"attr":{"value":{"tensor":{"floatVal":[],"doubleVal":[],"intVal":[],"stringVal":[],"scomplexVal":[],"int64Val":[],"boolVal":[],"uint32Val":[],"uint64Val":[],"dtype":1,"tensorShape":{"dim":[{"size":"32"}]}}},"dtype":{"type":1}},"name":"bn_stage0_block1_branch2a/bn_stage0_block1_branch2a/mul","op":"Const"},{"input":[],"attr":{"value":{"tensor":{"floatVal":[],"doubleVal":[],"intVal":[],"stringVal":[],"scomplexVal":[],"int64Val":[],"boolVal":[],"uint32Val":[],"uint64Val":[],"dtype":1,"tensorShape":{"dim":[{"size":"32"}]}}},"dtype":{"type":1}},"name":"bn_stage0_block1_branch2a/bn_stage0_block1_branch2a/sub","op":"Const"},{"input":[],"attr":{"value":{"tensor":{"floatVal":[],"doubleVal":[],"intVal":[],"stringVal":[],"scomplexVal":[],"int64Val":[],"boolVal":[],"uint32Val":[],"uint64Val":[],"dtype":1,"tensorShape":{"dim":[{"size":"3"},{"size":"3"},{"size":"32"},{"size":"32"}]}}},"dtype":{"type":1}},"name":"conv_stage0_block1_branch2b/weights","op":"Const"},{"input":[],"attr":{"dtype":{"type":1},"value":{"tensor":{"floatVal":[],"doubleVal":[],"intVal":[],"stringVal":[],"scomplexVal":[],"int64Val":[],"boolVal":[],"uint32Val":[],"uint64Val":[],"dtype":1,"tensorShape":{"dim":[{"size":"32"}]}}}},"name":"conv_stage0_block1_branch2b/biases","op":"Const"},{"input":[],"attr":{"value":{"tensor":{"floatVal":[],"doubleVal":[],"intVal":[],"stringVal":[],"scomplexVal":[],"int64Val":[],"boolVal":[],"uint32Val":[],"uint64Val":[],"dtype":1,"tensorShape":{"dim":[{"size":"32"}]}}},"dtype":{"type":1}},"name":"bn_stage0_block1_branch2b/bn_stage0_block1_branch2b/mul","op":"Const"},{"input":[],"attr":{"value":{"tensor":{"floatVal":[],"doubleVal":[],"intVal":[],"stringVal":[],"scomplexVal":[],"int64Val":[],"boolVal":[],"uint32Val":[],"uint64Val":[],"dtype":1,"tensorShape":{"dim":[{"size":"32"}]}}},"dtype":{"type":1}},"name":"bn_stage0_block1_branch2b/bn_stage0_block1_branch2b/sub","op":"Const"},{"input":[],"attr":{"dtype":{"type":1},"value":{"tensor":{"floatVal":[],"doubleVal":[],"intVal":[],"stringVal":[],"scomplexVal":[],"int64Val":[],"boolVal":[],"uint32Val":[],"uint64Val":[],"dtype":1,"tensorShape":{"dim":[{"size":"1"},{"size":"1"},{"size":"32"},{"size":"128"}]}}}},"name":"conv_stage0_block1_branch2c/weights","op":"Const"},{"input":[],"attr":{"dtype":{"type":1},"value":{"tensor":{"floatVal":[],"doubleVal":[],"intVal":[],"stringVal":[],"scomplexVal":[],"int64Val":[],"boolVal":[],"uint32Val":[],"uint64Val":[],"dtype":1,"tensorShape":{"dim":[{"size":"128"}]}}}},"name":"conv_stage0_block1_branch2c/biases","op":"Const"},{"input":[],"attr":{"value":{"tensor":{"floatVal":[],"doubleVal":[],"intVal":[],"stringVal":[],"scomplexVal":[],"int64Val":[],"boolVal":[],"uint32Val":[],"uint64Val":[],"dtype":1,"tensorShape":{"dim":[{"size":"128"}]}}},"dtype":{"type":1}},"name":"bn_stage0_block1_branch2c/bn_stage0_block1_branch2c/mul","op":"Const"},{"input":[],"attr":{"dtype":{"type":1},"value":{"tensor":{"floatVal":[],"doubleVal":[],"intVal":[],"stringVal":[],"scomplexVal":[],"int64Val":[],"boolVal":[],"uint32Val":[],"uint64Val":[],"dtype":1,"tensorShape":{"dim":[{"size":"1"},{"size":"1"},{"size":"128"},{"size":"32"}]}}}},"name":"conv_stage0_block2_branch2a/weights","op":"Const"},{"input":[],"attr":{"value":{"tensor":{"floatVal":[],"doubleVal":[],"intVal":[],"stringVal":[],"scomplexVal":[],"int64Val":[],"boolVal":[],"uint32Val":[],"uint64Val":[],"dtype":1,"tensorShape":{"dim":[{"size":"32"}]}}},"dtype":{"type":1}},"name":"conv_stage0_block2_branch2a/biases","op":"Const"},{"input":[],"attr":{"value":{"tensor":{"floatVal":[],"doubleVal":[],"intVal":[],"stringVal":[],"scomplexVal":[],"int64Val":[],"boolVal":[],"uint32Val":[],"uint64Val":[],"dtype":1,"tensorShape":{"dim":[{"size":"32"}]}}},"dtype":{"type":1}},"name":"bn_stage0_block2_branch2a/bn_stage0_block2_branch2a/mul","op":"Const"},{"input":[],"attr":{"value":{"tensor":{"floatVal":[],"doubleVal":[],"intVal":[],"stringVal":[],"scomplexVal":[],"int64Val":[],"boolVal":[],"uint32Val":[],"uint64Val":[],"dtype":1,"tensorShape":{"dim":[{"size":"32"}]}}},"dtype":{"type":1}},"name":"bn_stage0_block2_branch2a/bn_stage0_block2_branch2a/sub","op":"Const"},{"input":[],"attr":{"value":{"tensor":{"floatVal":[],"doubleVal":[],"intVal":[],"stringVal":[],"scomplexVal":[],"int64Val":[],"boolVal":[],"uint32Val":[],"uint64Val":[],"dtype":1,"tensorShape":{"dim":[{"size":"3"},{"size":"3"},{"size":"32"},{"size":"32"}]}}},"dtype":{"type":1}},"name":"conv_stage0_block2_branch2b/weights","op":"Const"},{"input":[],"attr":{"value":{"tensor":{"floatVal":[],"doubleVal":[],"intVal":[],"stringVal":[],"scomplexVal":[],"int64Val":[],"boolVal":[],"uint32Val":[],"uint64Val":[],"dtype":1,"tensorShape":{"dim":[{"size":"32"}]}}},"dtype":{"type":1}},"name":"conv_stage0_block2_branch2b/biases","op":"Const"},{"input":[],"attr":{"value":{"tensor":{"floatVal":[],"doubleVal":[],"intVal":[],"stringVal":[],"scomplexVal":[],"int64Val":[],"boolVal":[],"uint32Val":[],"uint64Val":[],"dtype":1,"tensorShape":{"dim":[{"size":"32"}]}}},"dtype":{"type":1}},"name":"bn_stage0_block2_branch2b/bn_stage0_block2_branch2b/mul","op":"Const"},{"input":[],"attr":{"value":{"tensor":{"floatVal":[],"doubleVal":[],"intVal":[],"stringVal":[],"scomplexVal":[],"int64Val":[],"boolVal":[],"uint32Val":[],"uint64Val":[],"dtype":1,"tensorShape":{"dim":[{"size":"32"}]}}},"dtype":{"type":1}},"name":"bn_stage0_block2_branch2b/bn_stage0_block2_branch2b/sub","op":"Const"},{"input":[],"attr":{"value":{"tensor":{"floatVal":[],"doubleVal":[],"intVal":[],"stringVal":[],"scomplexVal":[],"int64Val":[],"boolVal":[],"uint32Val":[],"uint64Val":[],"dtype":1,"tensorShape":{"dim":[{"size":"1"},{"size":"1"},{"size":"32"},{"size":"128"}]}}},"dtype":{"type":1}},"name":"conv_stage0_block2_branch2c/weights","op":"Const"},{"input":[],"attr":{"value":{"tensor":{"floatVal":[],"doubleVal":[],"intVal":[],"stringVal":[],"scomplexVal":[],"int64Val":[],"boolVal":[],"uint32Val":[],"uint64Val":[],"dtype":1,"tensorShape":{"dim":[{"size":"128"}]}}},"dtype":{"type":1}},"name":"conv_stage0_block2_branch2c/biases","op":"Const"},{"input":[],"attr":{"value":{"tensor":{"floatVal":[],"doubleVal":[],"intVal":[],"stringVal":[],"scomplexVal":[],"int64Val":[],"boolVal":[],"uint32Val":[],"uint64Val":[],"dtype":1,"tensorShape":{"dim":[{"size":"128"}]}}},"dtype":{"type":1}},"name":"bn_stage0_block2_branch2c/bn_stage0_block2_branch2c/mul","op":"Const"},{"input":[],"attr":{"value":{"tensor":{"floatVal":[],"doubleVal":[],"intVal":[],"stringVal":[],"scomplexVal":[],"int64Val":[],"boolVal":[],"uint32Val":[],"uint64Val":[],"dtype":1,"tensorShape":{"dim":[{"size":"1"},{"size":"1"},{"size":"128"},{"size":"64"}]}}},"dtype":{"type":1}},"name":"conv_stage1_block0_branch2a/weights","op":"Const"},{"input":[],"attr":{"value":{"tensor":{"floatVal":[],"doubleVal":[],"intVal":[],"stringVal":[],"scomplexVal":[],"int64Val":[],"boolVal":[],"uint32Val":[],"uint64Val":[],"dtype":1,"tensorShape":{"dim":[{"size":"64"}]}}},"dtype":{"type":1}},"name":"conv_stage1_block0_branch2a/biases","op":"Const"},{"input":[],"attr":{"value":{"tensor":{"floatVal":[],"doubleVal":[],"intVal":[],"stringVal":[],"scomplexVal":[],"int64Val":[],"boolVal":[],"uint32Val":[],"uint64Val":[],"dtype":1,"tensorShape":{"dim":[{"size":"64"}]}}},"dtype":{"type":1}},"name":"bn_stage1_block0_branch2a/bn_stage1_block0_branch2a/mul","op":"Const"},{"input":[],"attr":{"value":{"tensor":{"floatVal":[],"doubleVal":[],"intVal":[],"stringVal":[],"scomplexVal":[],"int64Val":[],"boolVal":[],"uint32Val":[],"uint64Val":[],"dtype":1,"tensorShape":{"dim":[{"size":"64"}]}}},"dtype":{"type":1}},"name":"bn_stage1_block0_branch2a/bn_stage1_block0_branch2a/sub","op":"Const"},{"input":[],"attr":{"value":{"tensor":{"floatVal":[],"doubleVal":[],"intVal":[],"stringVal":[],"scomplexVal":[],"int64Val":[],"boolVal":[],"uint32Val":[],"uint64Val":[],"dtype":1,"tensorShape":{"dim":[{"size":"3"},{"size":"3"},{"size":"64"},{"size":"64"}]}}},"dtype":{"type":1}},"name":"conv_stage1_block0_branch2b/weights","op":"Const"},{"input":[],"attr":{"value":{"tensor":{"floatVal":[],"doubleVal":[],"intVal":[],"stringVal":[],"scomplexVal":[],"int64Val":[],"boolVal":[],"uint32Val":[],"uint64Val":[],"dtype":1,"tensorShape":{"dim":[{"size":"64"}]}}},"dtype":{"type":1}},"name":"conv_stage1_block0_branch2b/biases","op":"Const"},{"input":[],"attr":{"dtype":{"type":1},"value":{"tensor":{"floatVal":[],"doubleVal":[],"intVal":[],"stringVal":[],"scomplexVal":[],"int64Val":[],"boolVal":[],"uint32Val":[],"uint64Val":[],"dtype":1,"tensorShape":{"dim":[{"size":"64"}]}}}},"name":"bn_stage1_block0_branch2b/bn_stage1_block0_branch2b/mul","op":"Const"},{"input":[],"attr":{"value":{"tensor":{"floatVal":[],"doubleVal":[],"intVal":[],"stringVal":[],"scomplexVal":[],"int64Val":[],"boolVal":[],"uint32Val":[],"uint64Val":[],"dtype":1,"tensorShape":{"dim":[{"size":"64"}]}}},"dtype":{"type":1}},"name":"bn_stage1_block0_branch2b/bn_stage1_block0_branch2b/sub","op":"Const"},{"input":[],"attr":{"value":{"tensor":{"floatVal":[],"doubleVal":[],"intVal":[],"stringVal":[],"scomplexVal":[],"int64Val":[],"boolVal":[],"uint32Val":[],"uint64Val":[],"dtype":1,"tensorShape":{"dim":[{"size":"1"},{"size":"1"},{"size":"64"},{"size":"256"}]}}},"dtype":{"type":1}},"name":"conv_stage1_block0_branch2c/weights","op":"Const"},{"input":[],"attr":{"value":{"tensor":{"floatVal":[],"doubleVal":[],"intVal":[],"stringVal":[],"scomplexVal":[],"int64Val":[],"boolVal":[],"uint32Val":[],"uint64Val":[],"dtype":1,"tensorShape":{"dim":[{"size":"256"}]}}},"dtype":{"type":1}},"name":"conv_stage1_block0_branch2c/biases","op":"Const"},{"input":[],"attr":{"value":{"tensor":{"floatVal":[],"doubleVal":[],"intVal":[],"stringVal":[],"scomplexVal":[],"int64Val":[],"boolVal":[],"uint32Val":[],"uint64Val":[],"dtype":1,"tensorShape":{"dim":[{"size":"256"}]}}},"dtype":{"type":1}},"name":"bn_stage1_block0_branch2c/bn_stage1_block0_branch2c/mul","op":"Const"},{"input":[],"attr":{"value":{"tensor":{"floatVal":[],"doubleVal":[],"intVal":[],"stringVal":[],"scomplexVal":[],"int64Val":[],"boolVal":[],"uint32Val":[],"uint64Val":[],"dtype":1,"tensorShape":{"dim":[{"size":"1"},{"size":"1"},{"size":"256"},{"size":"64"}]}}},"dtype":{"type":1}},"name":"conv_stage1_block1_branch2a/weights","op":"Const"},{"input":[],"attr":{"value":{"tensor":{"floatVal":[],"doubleVal":[],"intVal":[],"stringVal":[],"scomplexVal":[],"int64Val":[],"boolVal":[],"uint32Val":[],"uint64Val":[],"dtype":1,"tensorShape":{"dim":[{"size":"64"}]}}},"dtype":{"type":1}},"name":"conv_stage1_block1_branch2a/biases","op":"Const"},{"input":[],"attr":{"value":{"tensor":{"floatVal":[],"doubleVal":[],"intVal":[],"stringVal":[],"scomplexVal":[],"int64Val":[],"boolVal":[],"uint32Val":[],"uint64Val":[],"dtype":1,"tensorShape":{"dim":[{"size":"64"}]}}},"dtype":{"type":1}},"name":"bn_stage1_block1_branch2a/bn_stage1_block1_branch2a/mul","op":"Const"},{"input":[],"attr":{"dtype":{"type":1},"value":{"tensor":{"floatVal":[],"doubleVal":[],"intVal":[],"stringVal":[],"scomplexVal":[],"int64Val":[],"boolVal":[],"uint32Val":[],"uint64Val":[],"dtype":1,"tensorShape":{"dim":[{"size":"64"}]}}}},"name":"bn_stage1_block1_branch2a/bn_stage1_block1_branch2a/sub","op":"Const"},{"input":[],"attr":{"value":{"tensor":{"floatVal":[],"doubleVal":[],"intVal":[],"stringVal":[],"scomplexVal":[],"int64Val":[],"boolVal":[],"uint32Val":[],"uint64Val":[],"dtype":1,"tensorShape":{"dim":[{"size":"3"},{"size":"3"},{"size":"64"},{"size":"64"}]}}},"dtype":{"type":1}},"name":"conv_stage1_block1_branch2b/weights","op":"Const"},{"input":[],"attr":{"value":{"tensor":{"floatVal":[],"doubleVal":[],"intVal":[],"stringVal":[],"scomplexVal":[],"int64Val":[],"boolVal":[],"uint32Val":[],"uint64Val":[],"dtype":1,"tensorShape":{"dim":[{"size":"64"}]}}},"dtype":{"type":1}},"name":"conv_stage1_block1_branch2b/biases","op":"Const"},{"input":[],"attr":{"value":{"tensor":{"floatVal":[],"doubleVal":[],"intVal":[],"stringVal":[],"scomplexVal":[],"int64Val":[],"boolVal":[],"uint32Val":[],"uint64Val":[],"dtype":1,"tensorShape":{"dim":[{"size":"64"}]}}},"dtype":{"type":1}},"name":"bn_stage1_block1_branch2b/bn_stage1_block1_branch2b/mul","op":"Const"},{"input":[],"attr":{"value":{"tensor":{"floatVal":[],"doubleVal":[],"intVal":[],"stringVal":[],"scomplexVal":[],"int64Val":[],"boolVal":[],"uint32Val":[],"uint64Val":[],"dtype":1,"tensorShape":{"dim":[{"size":"64"}]}}},"dtype":{"type":1}},"name":"bn_stage1_block1_branch2b/bn_stage1_block1_branch2b/sub","op":"Const"},{"input":[],"attr":{"dtype":{"type":1},"value":{"tensor":{"floatVal":[],"doubleVal":[],"intVal":[],"stringVal":[],"scomplexVal":[],"int64Val":[],"boolVal":[],"uint32Val":[],"uint64Val":[],"dtype":1,"tensorShape":{"dim":[{"size":"1"},{"size":"1"},{"size":"64"},{"size":"256"}]}}}},"name":"conv_stage1_block1_branch2c/weights","op":"Const"},{"input":[],"attr":{"value":{"tensor":{"floatVal":[],"doubleVal":[],"intVal":[],"stringVal":[],"scomplexVal":[],"int64Val":[],"boolVal":[],"uint32Val":[],"uint64Val":[],"dtype":1,"tensorShape":{"dim":[{"size":"256"}]}}},"dtype":{"type":1}},"name":"conv_stage1_block1_branch2c/biases","op":"Const"},{"input":[],"attr":{"value":{"tensor":{"floatVal":[],"doubleVal":[],"intVal":[],"stringVal":[],"scomplexVal":[],"int64Val":[],"boolVal":[],"uint32Val":[],"uint64Val":[],"dtype":1,"tensorShape":{"dim":[{"size":"256"}]}}},"dtype":{"type":1}},"name":"bn_stage1_block1_branch2c/bn_stage1_block1_branch2c/mul","op":"Const"},{"input":[],"attr":{"value":{"tensor":{"floatVal":[],"doubleVal":[],"intVal":[],"stringVal":[],"scomplexVal":[],"int64Val":[],"boolVal":[],"uint32Val":[],"uint64Val":[],"dtype":1,"tensorShape":{"dim":[{"size":"1"},{"size":"1"},{"size":"256"},{"size":"64"}]}}},"dtype":{"type":1}},"name":"conv_stage1_block2_branch2a/weights","op":"Const"},{"input":[],"attr":{"value":{"tensor":{"floatVal":[],"doubleVal":[],"intVal":[],"stringVal":[],"scomplexVal":[],"int64Val":[],"boolVal":[],"uint32Val":[],"uint64Val":[],"dtype":1,"tensorShape":{"dim":[{"size":"64"}]}}},"dtype":{"type":1}},"name":"conv_stage1_block2_branch2a/biases","op":"Const"},{"input":[],"attr":{"value":{"tensor":{"floatVal":[],"doubleVal":[],"intVal":[],"stringVal":[],"scomplexVal":[],"int64Val":[],"boolVal":[],"uint32Val":[],"uint64Val":[],"dtype":1,"tensorShape":{"dim":[{"size":"64"}]}}},"dtype":{"type":1}},"name":"bn_stage1_block2_branch2a/bn_stage1_block2_branch2a/mul","op":"Const"},{"input":[],"attr":{"value":{"tensor":{"floatVal":[],"doubleVal":[],"intVal":[],"stringVal":[],"scomplexVal":[],"int64Val":[],"boolVal":[],"uint32Val":[],"uint64Val":[],"dtype":1,"tensorShape":{"dim":[{"size":"64"}]}}},"dtype":{"type":1}},"name":"bn_stage1_block2_branch2a/bn_stage1_block2_branch2a/sub","op":"Const"},{"input":[],"attr":{"value":{"tensor":{"floatVal":[],"doubleVal":[],"intVal":[],"stringVal":[],"scomplexVal":[],"int64Val":[],"boolVal":[],"uint32Val":[],"uint64Val":[],"dtype":1,"tensorShape":{"dim":[{"size":"3"},{"size":"3"},{"size":"64"},{"size":"64"}]}}},"dtype":{"type":1}},"name":"conv_stage1_block2_branch2b/weights","op":"Const"},{"input":[],"attr":{"value":{"tensor":{"floatVal":[],"doubleVal":[],"intVal":[],"stringVal":[],"scomplexVal":[],"int64Val":[],"boolVal":[],"uint32Val":[],"uint64Val":[],"dtype":1,"tensorShape":{"dim":[{"size":"64"}]}}},"dtype":{"type":1}},"name":"conv_stage1_block2_branch2b/biases","op":"Const"},{"input":[],"attr":{"value":{"tensor":{"floatVal":[],"doubleVal":[],"intVal":[],"stringVal":[],"scomplexVal":[],"int64Val":[],"boolVal":[],"uint32Val":[],"uint64Val":[],"dtype":1,"tensorShape":{"dim":[{"size":"64"}]}}},"dtype":{"type":1}},"name":"bn_stage1_block2_branch2b/bn_stage1_block2_branch2b/mul","op":"Const"},{"input":[],"attr":{"value":{"tensor":{"floatVal":[],"doubleVal":[],"intVal":[],"stringVal":[],"scomplexVal":[],"int64Val":[],"boolVal":[],"uint32Val":[],"uint64Val":[],"dtype":1,"tensorShape":{"dim":[{"size":"64"}]}}},"dtype":{"type":1}},"name":"bn_stage1_block2_branch2b/bn_stage1_block2_branch2b/sub","op":"Const"},{"input":[],"attr":{"value":{"tensor":{"floatVal":[],"doubleVal":[],"intVal":[],"stringVal":[],"scomplexVal":[],"int64Val":[],"boolVal":[],"uint32Val":[],"uint64Val":[],"dtype":1,"tensorShape":{"dim":[{"size":"1"},{"size":"1"},{"size":"64"},{"size":"256"}]}}},"dtype":{"type":1}},"name":"conv_stage1_block2_branch2c/weights","op":"Const"},{"input":[],"attr":{"value":{"tensor":{"floatVal":[],"doubleVal":[],"intVal":[],"stringVal":[],"scomplexVal":[],"int64Val":[],"boolVal":[],"uint32Val":[],"uint64Val":[],"dtype":1,"tensorShape":{"dim":[{"size":"256"}]}}},"dtype":{"type":1}},"name":"conv_stage1_block2_branch2c/biases","op":"Const"},{"input":[],"attr":{"value":{"tensor":{"floatVal":[],"doubleVal":[],"intVal":[],"stringVal":[],"scomplexVal":[],"int64Val":[],"boolVal":[],"uint32Val":[],"uint64Val":[],"dtype":1,"tensorShape":{"dim":[{"size":"256"}]}}},"dtype":{"type":1}},"name":"bn_stage1_block2_branch2c/bn_stage1_block2_branch2c/mul","op":"Const"},{"input":[],"attr":{"value":{"tensor":{"floatVal":[],"doubleVal":[],"intVal":[],"stringVal":[],"scomplexVal":[],"int64Val":[],"boolVal":[],"uint32Val":[],"uint64Val":[],"dtype":1,"tensorShape":{"dim":[{"size":"1"},{"size":"1"},{"size":"256"},{"size":"64"}]}}},"dtype":{"type":1}},"name":"conv_stage1_block3_branch2a/weights","op":"Const"},{"input":[],"attr":{"value":{"tensor":{"floatVal":[],"doubleVal":[],"intVal":[],"stringVal":[],"scomplexVal":[],"int64Val":[],"boolVal":[],"uint32Val":[],"uint64Val":[],"dtype":1,"tensorShape":{"dim":[{"size":"64"}]}}},"dtype":{"type":1}},"name":"conv_stage1_block3_branch2a/biases","op":"Const"},{"input":[],"attr":{"value":{"tensor":{"floatVal":[],"doubleVal":[],"intVal":[],"stringVal":[],"scomplexVal":[],"int64Val":[],"boolVal":[],"uint32Val":[],"uint64Val":[],"dtype":1,"tensorShape":{"dim":[{"size":"64"}]}}},"dtype":{"type":1}},"name":"bn_stage1_block3_branch2a/bn_stage1_block3_branch2a/mul","op":"Const"},{"input":[],"attr":{"dtype":{"type":1},"value":{"tensor":{"floatVal":[],"doubleVal":[],"intVal":[],"stringVal":[],"scomplexVal":[],"int64Val":[],"boolVal":[],"uint32Val":[],"uint64Val":[],"dtype":1,"tensorShape":{"dim":[{"size":"64"}]}}}},"name":"bn_stage1_block3_branch2a/bn_stage1_block3_branch2a/sub","op":"Const"},{"input":[],"attr":{"value":{"tensor":{"floatVal":[],"doubleVal":[],"intVal":[],"stringVal":[],"scomplexVal":[],"int64Val":[],"boolVal":[],"uint32Val":[],"uint64Val":[],"dtype":1,"tensorShape":{"dim":[{"size":"3"},{"size":"3"},{"size":"64"},{"size":"64"}]}}},"dtype":{"type":1}},"name":"conv_stage1_block3_branch2b/weights","op":"Const"},{"input":[],"attr":{"dtype":{"type":1},"value":{"tensor":{"floatVal":[],"doubleVal":[],"intVal":[],"stringVal":[],"scomplexVal":[],"int64Val":[],"boolVal":[],"uint32Val":[],"uint64Val":[],"dtype":1,"tensorShape":{"dim":[{"size":"64"}]}}}},"name":"conv_stage1_block3_branch2b/biases","op":"Const"},{"input":[],"attr":{"value":{"tensor":{"floatVal":[],"doubleVal":[],"intVal":[],"stringVal":[],"scomplexVal":[],"int64Val":[],"boolVal":[],"uint32Val":[],"uint64Val":[],"dtype":1,"tensorShape":{"dim":[{"size":"64"}]}}},"dtype":{"type":1}},"name":"bn_stage1_block3_branch2b/bn_stage1_block3_branch2b/mul","op":"Const"},{"input":[],"attr":{"value":{"tensor":{"floatVal":[],"doubleVal":[],"intVal":[],"stringVal":[],"scomplexVal":[],"int64Val":[],"boolVal":[],"uint32Val":[],"uint64Val":[],"dtype":1,"tensorShape":{"dim":[{"size":"64"}]}}},"dtype":{"type":1}},"name":"bn_stage1_block3_branch2b/bn_stage1_block3_branch2b/sub","op":"Const"},{"input":[],"attr":{"value":{"tensor":{"floatVal":[],"doubleVal":[],"intVal":[],"stringVal":[],"scomplexVal":[],"int64Val":[],"boolVal":[],"uint32Val":[],"uint64Val":[],"dtype":1,"tensorShape":{"dim":[{"size":"1"},{"size":"1"},{"size":"64"},{"size":"256"}]}}},"dtype":{"type":1}},"name":"conv_stage1_block3_branch2c/weights","op":"Const"},{"input":[],"attr":{"value":{"tensor":{"floatVal":[],"doubleVal":[],"intVal":[],"stringVal":[],"scomplexVal":[],"int64Val":[],"boolVal":[],"uint32Val":[],"uint64Val":[],"dtype":1,"tensorShape":{"dim":[{"size":"256"}]}}},"dtype":{"type":1}},"name":"conv_stage1_block3_branch2c/biases","op":"Const"},{"input":[],"attr":{"value":{"tensor":{"floatVal":[],"doubleVal":[],"intVal":[],"stringVal":[],"scomplexVal":[],"int64Val":[],"boolVal":[],"uint32Val":[],"uint64Val":[],"dtype":1,"tensorShape":{"dim":[{"size":"256"}]}}},"dtype":{"type":1}},"name":"bn_stage1_block3_branch2c/bn_stage1_block3_branch2c/mul","op":"Const"},{"input":[],"attr":{"value":{"tensor":{"floatVal":[],"doubleVal":[],"intVal":[],"stringVal":[],"scomplexVal":[],"int64Val":[],"boolVal":[],"uint32Val":[],"uint64Val":[],"dtype":1,"tensorShape":{"dim":[{"size":"1"},{"size":"1"},{"size":"256"},{"size":"128"}]}}},"dtype":{"type":1}},"name":"conv_stage2_block0_branch2a/weights","op":"Const"},{"input":[],"attr":{"value":{"tensor":{"floatVal":[],"doubleVal":[],"intVal":[],"stringVal":[],"scomplexVal":[],"int64Val":[],"boolVal":[],"uint32Val":[],"uint64Val":[],"dtype":1,"tensorShape":{"dim":[{"size":"128"}]}}},"dtype":{"type":1}},"name":"conv_stage2_block0_branch2a/biases","op":"Const"},{"input":[],"attr":{"value":{"tensor":{"floatVal":[],"doubleVal":[],"intVal":[],"stringVal":[],"scomplexVal":[],"int64Val":[],"boolVal":[],"uint32Val":[],"uint64Val":[],"dtype":1,"tensorShape":{"dim":[{"size":"128"}]}}},"dtype":{"type":1}},"name":"bn_stage2_block0_branch2a/bn_stage2_block0_branch2a/mul","op":"Const"},{"input":[],"attr":{"value":{"tensor":{"floatVal":[],"doubleVal":[],"intVal":[],"stringVal":[],"scomplexVal":[],"int64Val":[],"boolVal":[],"uint32Val":[],"uint64Val":[],"dtype":1,"tensorShape":{"dim":[{"size":"128"}]}}},"dtype":{"type":1}},"name":"bn_stage2_block0_branch2a/bn_stage2_block0_branch2a/sub","op":"Const"},{"input":[],"attr":{"value":{"tensor":{"floatVal":[],"doubleVal":[],"intVal":[],"stringVal":[],"scomplexVal":[],"int64Val":[],"boolVal":[],"uint32Val":[],"uint64Val":[],"dtype":1,"tensorShape":{"dim":[{"size":"3"},{"size":"3"},{"size":"128"},{"size":"128"}]}}},"dtype":{"type":1}},"name":"conv_stage2_block0_branch2b/weights","op":"Const"},{"input":[],"attr":{"value":{"tensor":{"floatVal":[],"doubleVal":[],"intVal":[],"stringVal":[],"scomplexVal":[],"int64Val":[],"boolVal":[],"uint32Val":[],"uint64Val":[],"dtype":1,"tensorShape":{"dim":[{"size":"128"}]}}},"dtype":{"type":1}},"name":"conv_stage2_block0_branch2b/biases","op":"Const"},{"input":[],"attr":{"dtype":{"type":1},"value":{"tensor":{"floatVal":[],"doubleVal":[],"intVal":[],"stringVal":[],"scomplexVal":[],"int64Val":[],"boolVal":[],"uint32Val":[],"uint64Val":[],"dtype":1,"tensorShape":{"dim":[{"size":"128"}]}}}},"name":"bn_stage2_block0_branch2b/bn_stage2_block0_branch2b/mul","op":"Const"},{"input":[],"attr":{"value":{"tensor":{"floatVal":[],"doubleVal":[],"intVal":[],"stringVal":[],"scomplexVal":[],"int64Val":[],"boolVal":[],"uint32Val":[],"uint64Val":[],"dtype":1,"tensorShape":{"dim":[{"size":"128"}]}}},"dtype":{"type":1}},"name":"bn_stage2_block0_branch2b/bn_stage2_block0_branch2b/sub","op":"Const"},{"input":[],"attr":{"value":{"tensor":{"floatVal":[],"doubleVal":[],"intVal":[],"stringVal":[],"scomplexVal":[],"int64Val":[],"boolVal":[],"uint32Val":[],"uint64Val":[],"dtype":1,"tensorShape":{"dim":[{"size":"1"},{"size":"1"},{"size":"128"},{"size":"512"}]}}},"dtype":{"type":1}},"name":"conv_stage2_block0_branch2c/weights","op":"Const"},{"input":[],"attr":{"value":{"tensor":{"floatVal":[],"doubleVal":[],"intVal":[],"stringVal":[],"scomplexVal":[],"int64Val":[],"boolVal":[],"uint32Val":[],"uint64Val":[],"dtype":1,"tensorShape":{"dim":[{"size":"512"}]}}},"dtype":{"type":1}},"name":"conv_stage2_block0_branch2c/biases","op":"Const"},{"input":[],"attr":{"value":{"tensor":{"floatVal":[],"doubleVal":[],"intVal":[],"stringVal":[],"scomplexVal":[],"int64Val":[],"boolVal":[],"uint32Val":[],"uint64Val":[],"dtype":1,"tensorShape":{"dim":[{"size":"512"}]}}},"dtype":{"type":1}},"name":"bn_stage2_block0_branch2c/bn_stage2_block0_branch2c/mul","op":"Const"},{"input":[],"attr":{"value":{"tensor":{"floatVal":[],"doubleVal":[],"intVal":[],"stringVal":[],"scomplexVal":[],"int64Val":[],"boolVal":[],"uint32Val":[],"uint64Val":[],"dtype":1,"tensorShape":{"dim":[{"size":"1"},{"size":"1"},{"size":"512"},{"size":"128"}]}}},"dtype":{"type":1}},"name":"conv_stage2_block1_branch2a/weights","op":"Const"},{"input":[],"attr":{"value":{"tensor":{"floatVal":[],"doubleVal":[],"intVal":[],"stringVal":[],"scomplexVal":[],"int64Val":[],"boolVal":[],"uint32Val":[],"uint64Val":[],"dtype":1,"tensorShape":{"dim":[{"size":"128"}]}}},"dtype":{"type":1}},"name":"conv_stage2_block1_branch2a/biases","op":"Const"},{"input":[],"attr":{"value":{"tensor":{"floatVal":[],"doubleVal":[],"intVal":[],"stringVal":[],"scomplexVal":[],"int64Val":[],"boolVal":[],"uint32Val":[],"uint64Val":[],"dtype":1,"tensorShape":{"dim":[{"size":"128"}]}}},"dtype":{"type":1}},"name":"bn_stage2_block1_branch2a/bn_stage2_block1_branch2a/mul","op":"Const"},{"input":[],"attr":{"value":{"tensor":{"floatVal":[],"doubleVal":[],"intVal":[],"stringVal":[],"scomplexVal":[],"int64Val":[],"boolVal":[],"uint32Val":[],"uint64Val":[],"dtype":1,"tensorShape":{"dim":[{"size":"128"}]}}},"dtype":{"type":1}},"name":"bn_stage2_block1_branch2a/bn_stage2_block1_branch2a/sub","op":"Const"},{"input":[],"attr":{"value":{"tensor":{"floatVal":[],"doubleVal":[],"intVal":[],"stringVal":[],"scomplexVal":[],"int64Val":[],"boolVal":[],"uint32Val":[],"uint64Val":[],"dtype":1,"tensorShape":{"dim":[{"size":"3"},{"size":"3"},{"size":"128"},{"size":"128"}]}}},"dtype":{"type":1}},"name":"conv_stage2_block1_branch2b/weights","op":"Const"},{"input":[],"attr":{"value":{"tensor":{"floatVal":[],"doubleVal":[],"intVal":[],"stringVal":[],"scomplexVal":[],"int64Val":[],"boolVal":[],"uint32Val":[],"uint64Val":[],"dtype":1,"tensorShape":{"dim":[{"size":"128"}]}}},"dtype":{"type":1}},"name":"conv_stage2_block1_branch2b/biases","op":"Const"},{"input":[],"attr":{"value":{"tensor":{"floatVal":[],"doubleVal":[],"intVal":[],"stringVal":[],"scomplexVal":[],"int64Val":[],"boolVal":[],"uint32Val":[],"uint64Val":[],"dtype":1,"tensorShape":{"dim":[{"size":"128"}]}}},"dtype":{"type":1}},"name":"bn_stage2_block1_branch2b/bn_stage2_block1_branch2b/mul","op":"Const"},{"input":[],"attr":{"value":{"tensor":{"floatVal":[],"doubleVal":[],"intVal":[],"stringVal":[],"scomplexVal":[],"int64Val":[],"boolVal":[],"uint32Val":[],"uint64Val":[],"dtype":1,"tensorShape":{"dim":[{"size":"128"}]}}},"dtype":{"type":1}},"name":"bn_stage2_block1_branch2b/bn_stage2_block1_branch2b/sub","op":"Const"},{"input":[],"attr":{"dtype":{"type":1},"value":{"tensor":{"floatVal":[],"doubleVal":[],"intVal":[],"stringVal":[],"scomplexVal":[],"int64Val":[],"boolVal":[],"uint32Val":[],"uint64Val":[],"dtype":1,"tensorShape":{"dim":[{"size":"1"},{"size":"1"},{"size":"128"},{"size":"512"}]}}}},"name":"conv_stage2_block1_branch2c/weights","op":"Const"},{"input":[],"attr":{"value":{"tensor":{"floatVal":[],"doubleVal":[],"intVal":[],"stringVal":[],"scomplexVal":[],"int64Val":[],"boolVal":[],"uint32Val":[],"uint64Val":[],"dtype":1,"tensorShape":{"dim":[{"size":"512"}]}}},"dtype":{"type":1}},"name":"conv_stage2_block1_branch2c/biases","op":"Const"},{"input":[],"attr":{"value":{"tensor":{"floatVal":[],"doubleVal":[],"intVal":[],"stringVal":[],"scomplexVal":[],"int64Val":[],"boolVal":[],"uint32Val":[],"uint64Val":[],"dtype":1,"tensorShape":{"dim":[{"size":"512"}]}}},"dtype":{"type":1}},"name":"bn_stage2_block1_branch2c/bn_stage2_block1_branch2c/mul","op":"Const"},{"input":[],"attr":{"dtype":{"type":1},"value":{"tensor":{"floatVal":[],"doubleVal":[],"intVal":[],"stringVal":[],"scomplexVal":[],"int64Val":[],"boolVal":[],"uint32Val":[],"uint64Val":[],"dtype":1,"tensorShape":{"dim":[{"size":"1"},{"size":"1"},{"size":"512"},{"size":"128"}]}}}},"name":"conv_stage2_block2_branch2a/weights","op":"Const"},{"input":[],"attr":{"value":{"tensor":{"floatVal":[],"doubleVal":[],"intVal":[],"stringVal":[],"scomplexVal":[],"int64Val":[],"boolVal":[],"uint32Val":[],"uint64Val":[],"dtype":1,"tensorShape":{"dim":[{"size":"128"}]}}},"dtype":{"type":1}},"name":"conv_stage2_block2_branch2a/biases","op":"Const"},{"input":[],"attr":{"value":{"tensor":{"floatVal":[],"doubleVal":[],"intVal":[],"stringVal":[],"scomplexVal":[],"int64Val":[],"boolVal":[],"uint32Val":[],"uint64Val":[],"dtype":1,"tensorShape":{"dim":[{"size":"128"}]}}},"dtype":{"type":1}},"name":"bn_stage2_block2_branch2a/bn_stage2_block2_branch2a/mul","op":"Const"},{"input":[],"attr":{"value":{"tensor":{"floatVal":[],"doubleVal":[],"intVal":[],"stringVal":[],"scomplexVal":[],"int64Val":[],"boolVal":[],"uint32Val":[],"uint64Val":[],"dtype":1,"tensorShape":{"dim":[{"size":"128"}]}}},"dtype":{"type":1}},"name":"bn_stage2_block2_branch2a/bn_stage2_block2_branch2a/sub","op":"Const"},{"input":[],"attr":{"value":{"tensor":{"floatVal":[],"doubleVal":[],"intVal":[],"stringVal":[],"scomplexVal":[],"int64Val":[],"boolVal":[],"uint32Val":[],"uint64Val":[],"dtype":1,"tensorShape":{"dim":[{"size":"3"},{"size":"3"},{"size":"128"},{"size":"128"}]}}},"dtype":{"type":1}},"name":"conv_stage2_block2_branch2b/weights","op":"Const"},{"input":[],"attr":{"dtype":{"type":1},"value":{"tensor":{"floatVal":[],"doubleVal":[],"intVal":[],"stringVal":[],"scomplexVal":[],"int64Val":[],"boolVal":[],"uint32Val":[],"uint64Val":[],"dtype":1,"tensorShape":{"dim":[{"size":"128"}]}}}},"name":"conv_stage2_block2_branch2b/biases","op":"Const"},{"input":[],"attr":{"value":{"tensor":{"floatVal":[],"doubleVal":[],"intVal":[],"stringVal":[],"scomplexVal":[],"int64Val":[],"boolVal":[],"uint32Val":[],"uint64Val":[],"dtype":1,"tensorShape":{"dim":[{"size":"128"}]}}},"dtype":{"type":1}},"name":"bn_stage2_block2_branch2b/bn_stage2_block2_branch2b/mul","op":"Const"},{"input":[],"attr":{"value":{"tensor":{"floatVal":[],"doubleVal":[],"intVal":[],"stringVal":[],"scomplexVal":[],"int64Val":[],"boolVal":[],"uint32Val":[],"uint64Val":[],"dtype":1,"tensorShape":{"dim":[{"size":"128"}]}}},"dtype":{"type":1}},"name":"bn_stage2_block2_branch2b/bn_stage2_block2_branch2b/sub","op":"Const"},{"input":[],"attr":{"value":{"tensor":{"floatVal":[],"doubleVal":[],"intVal":[],"stringVal":[],"scomplexVal":[],"int64Val":[],"boolVal":[],"uint32Val":[],"uint64Val":[],"dtype":1,"tensorShape":{"dim":[{"size":"1"},{"size":"1"},{"size":"128"},{"size":"512"}]}}},"dtype":{"type":1}},"name":"conv_stage2_block2_branch2c/weights","op":"Const"},{"input":[],"attr":{"value":{"tensor":{"floatVal":[],"doubleVal":[],"intVal":[],"stringVal":[],"scomplexVal":[],"int64Val":[],"boolVal":[],"uint32Val":[],"uint64Val":[],"dtype":1,"tensorShape":{"dim":[{"size":"512"}]}}},"dtype":{"type":1}},"name":"conv_stage2_block2_branch2c/biases","op":"Const"},{"input":[],"attr":{"value":{"tensor":{"floatVal":[],"doubleVal":[],"intVal":[],"stringVal":[],"scomplexVal":[],"int64Val":[],"boolVal":[],"uint32Val":[],"uint64Val":[],"dtype":1,"tensorShape":{"dim":[{"size":"512"}]}}},"dtype":{"type":1}},"name":"bn_stage2_block2_branch2c/bn_stage2_block2_branch2c/mul","op":"Const"},{"input":[],"attr":{"value":{"tensor":{"floatVal":[],"doubleVal":[],"intVal":[],"stringVal":[],"scomplexVal":[],"int64Val":[],"boolVal":[],"uint32Val":[],"uint64Val":[],"dtype":1,"tensorShape":{"dim":[{"size":"1"},{"size":"1"},{"size":"512"},{"size":"128"}]}}},"dtype":{"type":1}},"name":"conv_stage2_block3_branch2a/weights","op":"Const"},{"input":[],"attr":{"value":{"tensor":{"floatVal":[],"doubleVal":[],"intVal":[],"stringVal":[],"scomplexVal":[],"int64Val":[],"boolVal":[],"uint32Val":[],"uint64Val":[],"dtype":1,"tensorShape":{"dim":[{"size":"128"}]}}},"dtype":{"type":1}},"name":"conv_stage2_block3_branch2a/biases","op":"Const"},{"input":[],"attr":{"dtype":{"type":1},"value":{"tensor":{"floatVal":[],"doubleVal":[],"intVal":[],"stringVal":[],"scomplexVal":[],"int64Val":[],"boolVal":[],"uint32Val":[],"uint64Val":[],"dtype":1,"tensorShape":{"dim":[{"size":"128"}]}}}},"name":"bn_stage2_block3_branch2a/bn_stage2_block3_branch2a/mul","op":"Const"},{"input":[],"attr":{"value":{"tensor":{"floatVal":[],"doubleVal":[],"intVal":[],"stringVal":[],"scomplexVal":[],"int64Val":[],"boolVal":[],"uint32Val":[],"uint64Val":[],"dtype":1,"tensorShape":{"dim":[{"size":"128"}]}}},"dtype":{"type":1}},"name":"bn_stage2_block3_branch2a/bn_stage2_block3_branch2a/sub","op":"Const"},{"input":[],"attr":{"value":{"tensor":{"floatVal":[],"doubleVal":[],"intVal":[],"stringVal":[],"scomplexVal":[],"int64Val":[],"boolVal":[],"uint32Val":[],"uint64Val":[],"dtype":1,"tensorShape":{"dim":[{"size":"3"},{"size":"3"},{"size":"128"},{"size":"128"}]}}},"dtype":{"type":1}},"name":"conv_stage2_block3_branch2b/weights","op":"Const"},{"input":[],"attr":{"value":{"tensor":{"floatVal":[],"doubleVal":[],"intVal":[],"stringVal":[],"scomplexVal":[],"int64Val":[],"boolVal":[],"uint32Val":[],"uint64Val":[],"dtype":1,"tensorShape":{"dim":[{"size":"128"}]}}},"dtype":{"type":1}},"name":"conv_stage2_block3_branch2b/biases","op":"Const"},{"input":[],"attr":{"value":{"tensor":{"floatVal":[],"doubleVal":[],"intVal":[],"stringVal":[],"scomplexVal":[],"int64Val":[],"boolVal":[],"uint32Val":[],"uint64Val":[],"dtype":1,"tensorShape":{"dim":[{"size":"128"}]}}},"dtype":{"type":1}},"name":"bn_stage2_block3_branch2b/bn_stage2_block3_branch2b/mul","op":"Const"},{"input":[],"attr":{"value":{"tensor":{"floatVal":[],"doubleVal":[],"intVal":[],"stringVal":[],"scomplexVal":[],"int64Val":[],"boolVal":[],"uint32Val":[],"uint64Val":[],"dtype":1,"tensorShape":{"dim":[{"size":"128"}]}}},"dtype":{"type":1}},"name":"bn_stage2_block3_branch2b/bn_stage2_block3_branch2b/sub","op":"Const"},{"input":[],"attr":{"dtype":{"type":1},"value":{"tensor":{"floatVal":[],"doubleVal":[],"intVal":[],"stringVal":[],"scomplexVal":[],"int64Val":[],"boolVal":[],"uint32Val":[],"uint64Val":[],"dtype":1,"tensorShape":{"dim":[{"size":"1"},{"size":"1"},{"size":"128"},{"size":"512"}]}}}},"name":"conv_stage2_block3_branch2c/weights","op":"Const"},{"input":[],"attr":{"value":{"tensor":{"floatVal":[],"doubleVal":[],"intVal":[],"stringVal":[],"scomplexVal":[],"int64Val":[],"boolVal":[],"uint32Val":[],"uint64Val":[],"dtype":1,"tensorShape":{"dim":[{"size":"512"}]}}},"dtype":{"type":1}},"name":"conv_stage2_block3_branch2c/biases","op":"Const"},{"input":[],"attr":{"value":{"tensor":{"floatVal":[],"doubleVal":[],"intVal":[],"stringVal":[],"scomplexVal":[],"int64Val":[],"boolVal":[],"uint32Val":[],"uint64Val":[],"dtype":1,"tensorShape":{"dim":[{"size":"512"}]}}},"dtype":{"type":1}},"name":"bn_stage2_block3_branch2c/bn_stage2_block3_branch2c/mul","op":"Const"},{"input":[],"attr":{"dtype":{"type":1},"value":{"tensor":{"floatVal":[],"doubleVal":[],"intVal":[],"stringVal":[],"scomplexVal":[],"int64Val":[],"boolVal":[],"uint32Val":[],"uint64Val":[],"dtype":1,"tensorShape":{"dim":[{"size":"1"},{"size":"1"},{"size":"512"},{"size":"128"}]}}}},"name":"conv_stage2_block4_branch2a/weights","op":"Const"},{"input":[],"attr":{"value":{"tensor":{"floatVal":[],"doubleVal":[],"intVal":[],"stringVal":[],"scomplexVal":[],"int64Val":[],"boolVal":[],"uint32Val":[],"uint64Val":[],"dtype":1,"tensorShape":{"dim":[{"size":"128"}]}}},"dtype":{"type":1}},"name":"conv_stage2_block4_branch2a/biases","op":"Const"},{"input":[],"attr":{"value":{"tensor":{"floatVal":[],"doubleVal":[],"intVal":[],"stringVal":[],"scomplexVal":[],"int64Val":[],"boolVal":[],"uint32Val":[],"uint64Val":[],"dtype":1,"tensorShape":{"dim":[{"size":"128"}]}}},"dtype":{"type":1}},"name":"bn_stage2_block4_branch2a/bn_stage2_block4_branch2a/mul","op":"Const"},{"input":[],"attr":{"value":{"tensor":{"floatVal":[],"doubleVal":[],"intVal":[],"stringVal":[],"scomplexVal":[],"int64Val":[],"boolVal":[],"uint32Val":[],"uint64Val":[],"dtype":1,"tensorShape":{"dim":[{"size":"128"}]}}},"dtype":{"type":1}},"name":"bn_stage2_block4_branch2a/bn_stage2_block4_branch2a/sub","op":"Const"},{"input":[],"attr":{"value":{"tensor":{"floatVal":[],"doubleVal":[],"intVal":[],"stringVal":[],"scomplexVal":[],"int64Val":[],"boolVal":[],"uint32Val":[],"uint64Val":[],"dtype":1,"tensorShape":{"dim":[{"size":"3"},{"size":"3"},{"size":"128"},{"size":"128"}]}}},"dtype":{"type":1}},"name":"conv_stage2_block4_branch2b/weights","op":"Const"},{"input":[],"attr":{"dtype":{"type":1},"value":{"tensor":{"floatVal":[],"doubleVal":[],"intVal":[],"stringVal":[],"scomplexVal":[],"int64Val":[],"boolVal":[],"uint32Val":[],"uint64Val":[],"dtype":1,"tensorShape":{"dim":[{"size":"128"}]}}}},"name":"conv_stage2_block4_branch2b/biases","op":"Const"},{"input":[],"attr":{"value":{"tensor":{"floatVal":[],"doubleVal":[],"intVal":[],"stringVal":[],"scomplexVal":[],"int64Val":[],"boolVal":[],"uint32Val":[],"uint64Val":[],"dtype":1,"tensorShape":{"dim":[{"size":"128"}]}}},"dtype":{"type":1}},"name":"bn_stage2_block4_branch2b/bn_stage2_block4_branch2b/mul","op":"Const"},{"input":[],"attr":{"value":{"tensor":{"floatVal":[],"doubleVal":[],"intVal":[],"stringVal":[],"scomplexVal":[],"int64Val":[],"boolVal":[],"uint32Val":[],"uint64Val":[],"dtype":1,"tensorShape":{"dim":[{"size":"128"}]}}},"dtype":{"type":1}},"name":"bn_stage2_block4_branch2b/bn_stage2_block4_branch2b/sub","op":"Const"},{"input":[],"attr":{"value":{"tensor":{"floatVal":[],"doubleVal":[],"intVal":[],"stringVal":[],"scomplexVal":[],"int64Val":[],"boolVal":[],"uint32Val":[],"uint64Val":[],"dtype":1,"tensorShape":{"dim":[{"size":"1"},{"size":"1"},{"size":"128"},{"size":"512"}]}}},"dtype":{"type":1}},"name":"conv_stage2_block4_branch2c/weights","op":"Const"},{"input":[],"attr":{"value":{"tensor":{"floatVal":[],"doubleVal":[],"intVal":[],"stringVal":[],"scomplexVal":[],"int64Val":[],"boolVal":[],"uint32Val":[],"uint64Val":[],"dtype":1,"tensorShape":{"dim":[{"size":"512"}]}}},"dtype":{"type":1}},"name":"conv_stage2_block4_branch2c/biases","op":"Const"},{"input":[],"attr":{"value":{"tensor":{"floatVal":[],"doubleVal":[],"intVal":[],"stringVal":[],"scomplexVal":[],"int64Val":[],"boolVal":[],"uint32Val":[],"uint64Val":[],"dtype":1,"tensorShape":{"dim":[{"size":"512"}]}}},"dtype":{"type":1}},"name":"bn_stage2_block4_branch2c/bn_stage2_block4_branch2c/mul","op":"Const"},{"input":[],"attr":{"value":{"tensor":{"floatVal":[],"doubleVal":[],"intVal":[],"stringVal":[],"scomplexVal":[],"int64Val":[],"boolVal":[],"uint32Val":[],"uint64Val":[],"dtype":1,"tensorShape":{"dim":[{"size":"1"},{"size":"1"},{"size":"512"},{"size":"128"}]}}},"dtype":{"type":1}},"name":"conv_stage2_block5_branch2a/weights","op":"Const"},{"input":[],"attr":{"value":{"tensor":{"floatVal":[],"doubleVal":[],"intVal":[],"stringVal":[],"scomplexVal":[],"int64Val":[],"boolVal":[],"uint32Val":[],"uint64Val":[],"dtype":1,"tensorShape":{"dim":[{"size":"128"}]}}},"dtype":{"type":1}},"name":"conv_stage2_block5_branch2a/biases","op":"Const"},{"input":[],"attr":{"value":{"tensor":{"floatVal":[],"doubleVal":[],"intVal":[],"stringVal":[],"scomplexVal":[],"int64Val":[],"boolVal":[],"uint32Val":[],"uint64Val":[],"dtype":1,"tensorShape":{"dim":[{"size":"128"}]}}},"dtype":{"type":1}},"name":"bn_stage2_block5_branch2a/bn_stage2_block5_branch2a/mul","op":"Const"},{"input":[],"attr":{"dtype":{"type":1},"value":{"tensor":{"floatVal":[],"doubleVal":[],"intVal":[],"stringVal":[],"scomplexVal":[],"int64Val":[],"boolVal":[],"uint32Val":[],"uint64Val":[],"dtype":1,"tensorShape":{"dim":[{"size":"128"}]}}}},"name":"bn_stage2_block5_branch2a/bn_stage2_block5_branch2a/sub","op":"Const"},{"input":[],"attr":{"value":{"tensor":{"floatVal":[],"doubleVal":[],"intVal":[],"stringVal":[],"scomplexVal":[],"int64Val":[],"boolVal":[],"uint32Val":[],"uint64Val":[],"dtype":1,"tensorShape":{"dim":[{"size":"3"},{"size":"3"},{"size":"128"},{"size":"128"}]}}},"dtype":{"type":1}},"name":"conv_stage2_block5_branch2b/weights","op":"Const"},{"input":[],"attr":{"value":{"tensor":{"floatVal":[],"doubleVal":[],"intVal":[],"stringVal":[],"scomplexVal":[],"int64Val":[],"boolVal":[],"uint32Val":[],"uint64Val":[],"dtype":1,"tensorShape":{"dim":[{"size":"128"}]}}},"dtype":{"type":1}},"name":"conv_stage2_block5_branch2b/biases","op":"Const"},{"input":[],"attr":{"value":{"tensor":{"floatVal":[],"doubleVal":[],"intVal":[],"stringVal":[],"scomplexVal":[],"int64Val":[],"boolVal":[],"uint32Val":[],"uint64Val":[],"dtype":1,"tensorShape":{"dim":[{"size":"128"}]}}},"dtype":{"type":1}},"name":"bn_stage2_block5_branch2b/bn_stage2_block5_branch2b/mul","op":"Const"},{"input":[],"attr":{"value":{"tensor":{"floatVal":[],"doubleVal":[],"intVal":[],"stringVal":[],"scomplexVal":[],"int64Val":[],"boolVal":[],"uint32Val":[],"uint64Val":[],"dtype":1,"tensorShape":{"dim":[{"size":"128"}]}}},"dtype":{"type":1}},"name":"bn_stage2_block5_branch2b/bn_stage2_block5_branch2b/sub","op":"Const"},{"input":[],"attr":{"value":{"tensor":{"floatVal":[],"doubleVal":[],"intVal":[],"stringVal":[],"scomplexVal":[],"int64Val":[],"boolVal":[],"uint32Val":[],"uint64Val":[],"dtype":1,"tensorShape":{"dim":[{"size":"1"},{"size":"1"},{"size":"128"},{"size":"512"}]}}},"dtype":{"type":1}},"name":"conv_stage2_block5_branch2c/weights","op":"Const"},{"input":[],"attr":{"value":{"tensor":{"floatVal":[],"doubleVal":[],"intVal":[],"stringVal":[],"scomplexVal":[],"int64Val":[],"boolVal":[],"uint32Val":[],"uint64Val":[],"dtype":1,"tensorShape":{"dim":[{"size":"512"}]}}},"dtype":{"type":1}},"name":"conv_stage2_block5_branch2c/biases","op":"Const"},{"input":[],"attr":{"value":{"tensor":{"floatVal":[],"doubleVal":[],"intVal":[],"stringVal":[],"scomplexVal":[],"int64Val":[],"boolVal":[],"uint32Val":[],"uint64Val":[],"dtype":1,"tensorShape":{"dim":[{"size":"512"}]}}},"dtype":{"type":1}},"name":"bn_stage2_block5_branch2c/bn_stage2_block5_branch2c/mul","op":"Const"},{"input":[],"attr":{"value":{"tensor":{"floatVal":[],"doubleVal":[],"intVal":[],"stringVal":[],"scomplexVal":[],"int64Val":[],"boolVal":[],"uint32Val":[],"uint64Val":[],"dtype":1,"tensorShape":{"dim":[{"size":"1"},{"size":"1"},{"size":"512"},{"size":"256"}]}}},"dtype":{"type":1}},"name":"conv_stage3_block0_branch2a/weights","op":"Const"},{"input":[],"attr":{"value":{"tensor":{"floatVal":[],"doubleVal":[],"intVal":[],"stringVal":[],"scomplexVal":[],"int64Val":[],"boolVal":[],"uint32Val":[],"uint64Val":[],"dtype":1,"tensorShape":{"dim":[{"size":"256"}]}}},"dtype":{"type":1}},"name":"conv_stage3_block0_branch2a/biases","op":"Const"},{"input":[],"attr":{"value":{"tensor":{"floatVal":[],"doubleVal":[],"intVal":[],"stringVal":[],"scomplexVal":[],"int64Val":[],"boolVal":[],"uint32Val":[],"uint64Val":[],"dtype":1,"tensorShape":{"dim":[{"size":"256"}]}}},"dtype":{"type":1}},"name":"bn_stage3_block0_branch2a/bn_stage3_block0_branch2a/mul","op":"Const"},{"input":[],"attr":{"value":{"tensor":{"floatVal":[],"doubleVal":[],"intVal":[],"stringVal":[],"scomplexVal":[],"int64Val":[],"boolVal":[],"uint32Val":[],"uint64Val":[],"dtype":1,"tensorShape":{"dim":[{"size":"256"}]}}},"dtype":{"type":1}},"name":"bn_stage3_block0_branch2a/bn_stage3_block0_branch2a/sub","op":"Const"},{"input":[],"attr":{"value":{"tensor":{"floatVal":[],"doubleVal":[],"intVal":[],"stringVal":[],"scomplexVal":[],"int64Val":[],"boolVal":[],"uint32Val":[],"uint64Val":[],"dtype":1,"tensorShape":{"dim":[{"size":"3"},{"size":"3"},{"size":"256"},{"size":"256"}]}}},"dtype":{"type":1}},"name":"conv_stage3_block0_branch2b/weights","op":"Const"},{"input":[],"attr":{"value":{"tensor":{"floatVal":[],"doubleVal":[],"intVal":[],"stringVal":[],"scomplexVal":[],"int64Val":[],"boolVal":[],"uint32Val":[],"uint64Val":[],"dtype":1,"tensorShape":{"dim":[{"size":"256"}]}}},"dtype":{"type":1}},"name":"conv_stage3_block0_branch2b/biases","op":"Const"},{"input":[],"attr":{"value":{"tensor":{"floatVal":[],"doubleVal":[],"intVal":[],"stringVal":[],"scomplexVal":[],"int64Val":[],"boolVal":[],"uint32Val":[],"uint64Val":[],"dtype":1,"tensorShape":{"dim":[{"size":"256"}]}}},"dtype":{"type":1}},"name":"bn_stage3_block0_branch2b/bn_stage3_block0_branch2b/mul","op":"Const"},{"input":[],"attr":{"value":{"tensor":{"floatVal":[],"doubleVal":[],"intVal":[],"stringVal":[],"scomplexVal":[],"int64Val":[],"boolVal":[],"uint32Val":[],"uint64Val":[],"dtype":1,"tensorShape":{"dim":[{"size":"256"}]}}},"dtype":{"type":1}},"name":"bn_stage3_block0_branch2b/bn_stage3_block0_branch2b/sub","op":"Const"},{"input":[],"attr":{"dtype":{"type":1},"value":{"tensor":{"floatVal":[],"doubleVal":[],"intVal":[],"stringVal":[],"scomplexVal":[],"int64Val":[],"boolVal":[],"uint32Val":[],"uint64Val":[],"dtype":1,"tensorShape":{"dim":[{"size":"1"},{"size":"1"},{"size":"256"},{"size":"1024"}]}}}},"name":"conv_stage3_block0_branch2c/weights","op":"Const"},{"input":[],"attr":{"value":{"tensor":{"floatVal":[],"doubleVal":[],"intVal":[],"stringVal":[],"scomplexVal":[],"int64Val":[],"boolVal":[],"uint32Val":[],"uint64Val":[],"dtype":1,"tensorShape":{"dim":[{"size":"1024"}]}}},"dtype":{"type":1}},"name":"conv_stage3_block0_branch2c/biases","op":"Const"},{"input":[],"attr":{"value":{"tensor":{"floatVal":[],"doubleVal":[],"intVal":[],"stringVal":[],"scomplexVal":[],"int64Val":[],"boolVal":[],"uint32Val":[],"uint64Val":[],"dtype":1,"tensorShape":{"dim":[{"size":"1024"}]}}},"dtype":{"type":1}},"name":"bn_stage3_block0_branch2c/bn_stage3_block0_branch2c/mul","op":"Const"},{"input":[],"attr":{"value":{"tensor":{"floatVal":[],"doubleVal":[],"intVal":[],"stringVal":[],"scomplexVal":[],"int64Val":[],"boolVal":[],"uint32Val":[],"uint64Val":[],"dtype":1,"tensorShape":{"dim":[{"size":"1"},{"size":"1"},{"size":"1024"},{"size":"256"}]}}},"dtype":{"type":1}},"name":"conv_stage3_block1_branch2a/weights","op":"Const"},{"input":[],"attr":{"value":{"tensor":{"floatVal":[],"doubleVal":[],"intVal":[],"stringVal":[],"scomplexVal":[],"int64Val":[],"boolVal":[],"uint32Val":[],"uint64Val":[],"dtype":1,"tensorShape":{"dim":[{"size":"256"}]}}},"dtype":{"type":1}},"name":"conv_stage3_block1_branch2a/biases","op":"Const"},{"input":[],"attr":{"value":{"tensor":{"floatVal":[],"doubleVal":[],"intVal":[],"stringVal":[],"scomplexVal":[],"int64Val":[],"boolVal":[],"uint32Val":[],"uint64Val":[],"dtype":1,"tensorShape":{"dim":[{"size":"256"}]}}},"dtype":{"type":1}},"name":"bn_stage3_block1_branch2a/bn_stage3_block1_branch2a/mul","op":"Const"},{"input":[],"attr":{"value":{"tensor":{"floatVal":[],"doubleVal":[],"intVal":[],"stringVal":[],"scomplexVal":[],"int64Val":[],"boolVal":[],"uint32Val":[],"uint64Val":[],"dtype":1,"tensorShape":{"dim":[{"size":"256"}]}}},"dtype":{"type":1}},"name":"bn_stage3_block1_branch2a/bn_stage3_block1_branch2a/sub","op":"Const"},{"input":[],"attr":{"value":{"tensor":{"floatVal":[],"doubleVal":[],"intVal":[],"stringVal":[],"scomplexVal":[],"int64Val":[],"boolVal":[],"uint32Val":[],"uint64Val":[],"dtype":1,"tensorShape":{"dim":[{"size":"3"},{"size":"3"},{"size":"256"},{"size":"256"}]}}},"dtype":{"type":1}},"name":"conv_stage3_block1_branch2b/weights","op":"Const"},{"input":[],"attr":{"value":{"tensor":{"floatVal":[],"doubleVal":[],"intVal":[],"stringVal":[],"scomplexVal":[],"int64Val":[],"boolVal":[],"uint32Val":[],"uint64Val":[],"dtype":1,"tensorShape":{"dim":[{"size":"256"}]}}},"dtype":{"type":1}},"name":"conv_stage3_block1_branch2b/biases","op":"Const"},{"input":[],"attr":{"value":{"tensor":{"floatVal":[],"doubleVal":[],"intVal":[],"stringVal":[],"scomplexVal":[],"int64Val":[],"boolVal":[],"uint32Val":[],"uint64Val":[],"dtype":1,"tensorShape":{"dim":[{"size":"256"}]}}},"dtype":{"type":1}},"name":"bn_stage3_block1_branch2b/bn_stage3_block1_branch2b/mul","op":"Const"},{"input":[],"attr":{"value":{"tensor":{"floatVal":[],"doubleVal":[],"intVal":[],"stringVal":[],"scomplexVal":[],"int64Val":[],"boolVal":[],"uint32Val":[],"uint64Val":[],"dtype":1,"tensorShape":{"dim":[{"size":"256"}]}}},"dtype":{"type":1}},"name":"bn_stage3_block1_branch2b/bn_stage3_block1_branch2b/sub","op":"Const"},{"input":[],"attr":{"value":{"tensor":{"floatVal":[],"doubleVal":[],"intVal":[],"stringVal":[],"scomplexVal":[],"int64Val":[],"boolVal":[],"uint32Val":[],"uint64Val":[],"dtype":1,"tensorShape":{"dim":[{"size":"1"},{"size":"1"},{"size":"256"},{"size":"1024"}]}}},"dtype":{"type":1}},"name":"conv_stage3_block1_branch2c/weights","op":"Const"},{"input":[],"attr":{"value":{"tensor":{"floatVal":[],"doubleVal":[],"intVal":[],"stringVal":[],"scomplexVal":[],"int64Val":[],"boolVal":[],"uint32Val":[],"uint64Val":[],"dtype":1,"tensorShape":{"dim":[{"size":"1024"}]}}},"dtype":{"type":1}},"name":"conv_stage3_block1_branch2c/biases","op":"Const"},{"input":[],"attr":{"value":{"tensor":{"floatVal":[],"doubleVal":[],"intVal":[],"stringVal":[],"scomplexVal":[],"int64Val":[],"boolVal":[],"uint32Val":[],"uint64Val":[],"dtype":1,"tensorShape":{"dim":[{"size":"1024"}]}}},"dtype":{"type":1}},"name":"bn_stage3_block1_branch2c/bn_stage3_block1_branch2c/mul","op":"Const"},{"input":[],"attr":{"value":{"tensor":{"floatVal":[],"doubleVal":[],"intVal":[],"stringVal":[],"scomplexVal":[],"int64Val":[],"boolVal":[],"uint32Val":[],"uint64Val":[],"dtype":1,"tensorShape":{"dim":[{"size":"1"},{"size":"1"},{"size":"1024"},{"size":"256"}]}}},"dtype":{"type":1}},"name":"conv_stage3_block2_branch2a/weights","op":"Const"},{"input":[],"attr":{"value":{"tensor":{"floatVal":[],"doubleVal":[],"intVal":[],"stringVal":[],"scomplexVal":[],"int64Val":[],"boolVal":[],"uint32Val":[],"uint64Val":[],"dtype":1,"tensorShape":{"dim":[{"size":"256"}]}}},"dtype":{"type":1}},"name":"conv_stage3_block2_branch2a/biases","op":"Const"},{"input":[],"attr":{"value":{"tensor":{"floatVal":[],"doubleVal":[],"intVal":[],"stringVal":[],"scomplexVal":[],"int64Val":[],"boolVal":[],"uint32Val":[],"uint64Val":[],"dtype":1,"tensorShape":{"dim":[{"size":"256"}]}}},"dtype":{"type":1}},"name":"bn_stage3_block2_branch2a/bn_stage3_block2_branch2a/mul","op":"Const"},{"input":[],"attr":{"value":{"tensor":{"floatVal":[],"doubleVal":[],"intVal":[],"stringVal":[],"scomplexVal":[],"int64Val":[],"boolVal":[],"uint32Val":[],"uint64Val":[],"dtype":1,"tensorShape":{"dim":[{"size":"256"}]}}},"dtype":{"type":1}},"name":"bn_stage3_block2_branch2a/bn_stage3_block2_branch2a/sub","op":"Const"},{"input":[],"attr":{"value":{"tensor":{"floatVal":[],"doubleVal":[],"intVal":[],"stringVal":[],"scomplexVal":[],"int64Val":[],"boolVal":[],"uint32Val":[],"uint64Val":[],"dtype":1,"tensorShape":{"dim":[{"size":"3"},{"size":"3"},{"size":"256"},{"size":"256"}]}}},"dtype":{"type":1}},"name":"conv_stage3_block2_branch2b/weights","op":"Const"},{"input":[],"attr":{"value":{"tensor":{"floatVal":[],"doubleVal":[],"intVal":[],"stringVal":[],"scomplexVal":[],"int64Val":[],"boolVal":[],"uint32Val":[],"uint64Val":[],"dtype":1,"tensorShape":{"dim":[{"size":"256"}]}}},"dtype":{"type":1}},"name":"conv_stage3_block2_branch2b/biases","op":"Const"},{"input":[],"attr":{"value":{"tensor":{"floatVal":[],"doubleVal":[],"intVal":[],"stringVal":[],"scomplexVal":[],"int64Val":[],"boolVal":[],"uint32Val":[],"uint64Val":[],"dtype":1,"tensorShape":{"dim":[{"size":"256"}]}}},"dtype":{"type":1}},"name":"bn_stage3_block2_branch2b/bn_stage3_block2_branch2b/mul","op":"Const"},{"input":[],"attr":{"value":{"tensor":{"floatVal":[],"doubleVal":[],"intVal":[],"stringVal":[],"scomplexVal":[],"int64Val":[],"boolVal":[],"uint32Val":[],"uint64Val":[],"dtype":1,"tensorShape":{"dim":[{"size":"256"}]}}},"dtype":{"type":1}},"name":"bn_stage3_block2_branch2b/bn_stage3_block2_branch2b/sub","op":"Const"},{"input":[],"attr":{"value":{"tensor":{"floatVal":[],"doubleVal":[],"intVal":[],"stringVal":[],"scomplexVal":[],"int64Val":[],"boolVal":[],"uint32Val":[],"uint64Val":[],"dtype":1,"tensorShape":{"dim":[{"size":"1"},{"size":"1"},{"size":"256"},{"size":"1024"}]}}},"dtype":{"type":1}},"name":"conv_stage3_block2_branch2c/weights","op":"Const"},{"input":[],"attr":{"value":{"tensor":{"floatVal":[],"doubleVal":[],"intVal":[],"stringVal":[],"scomplexVal":[],"int64Val":[],"boolVal":[],"uint32Val":[],"uint64Val":[],"dtype":1,"tensorShape":{"dim":[{"size":"1024"}]}}},"dtype":{"type":1}},"name":"conv_stage3_block2_branch2c/biases","op":"Const"},{"input":[],"attr":{"value":{"tensor":{"floatVal":[],"doubleVal":[],"intVal":[],"stringVal":[],"scomplexVal":[],"int64Val":[],"boolVal":[],"uint32Val":[],"uint64Val":[],"dtype":1,"tensorShape":{"dim":[{"size":"1024"}]}}},"dtype":{"type":1}},"name":"bn_stage3_block2_branch2c/bn_stage3_block2_branch2c/mul","op":"Const"},{"input":[],"attr":{"value":{"tensor":{"floatVal":[],"doubleVal":[],"intVal":[],"stringVal":[],"scomplexVal":[],"int64Val":[],"boolVal":[],"uint32Val":[],"uint64Val":[],"dtype":3,"tensorShape":{"dim":[{"size":"2"}]}}},"dtype":{"type":3}},"name":"fc_nsfw/Reshape/shape","op":"Const"},{"input":[],"attr":{"value":{"tensor":{"floatVal":[],"doubleVal":[],"intVal":[],"stringVal":[],"scomplexVal":[],"int64Val":[],"boolVal":[],"uint32Val":[],"uint64Val":[],"dtype":1,"tensorShape":{"dim":[{"size":"1024"},{"size":"2"}]}}},"dtype":{"type":1}},"name":"fc_nsfw/weights","op":"Const"},{"input":[],"attr":{"value":{"tensor":{"floatVal":[],"doubleVal":[],"intVal":[],"stringVal":[],"scomplexVal":[],"int64Val":[],"boolVal":[],"uint32Val":[],"uint64Val":[],"dtype":1,"tensorShape":{"dim":[{"size":"2"}]}}},"dtype":{"type":1}},"name":"fc_nsfw/biases","op":"Const"},{"input":["data","conv_1/weights"],"attr":{"dilations":{"list":{"s":[],"i":["1","1","1","1"],"f":[],"b":[],"type":[],"shape":[],"tensor":[],"func":[]}},"T":{"type":1},"strides":{"list":{"s":[],"i":["1","2","2","1"],"f":[],"b":[],"type":[],"shape":[],"tensor":[],"func":[]}},"data_format":{"s":[78,72,87,67]},"use_cudnn_on_gpu":{"b":true},"padding":{"s":[83,65,77,69]}},"name":"conv_1/Conv2D","op":"Conv2D"},{"input":["conv_1/Conv2D","conv_1/biases"],"attr":{"data_format":{"s":[78,72,87,67]},"T":{"type":1}},"name":"conv_1/BiasAdd","op":"BiasAdd"},{"input":["conv_1/BiasAdd","bn_1/bn_1/mul"],"attr":{"T":{"type":1}},"name":"bn_1/bn_1/mul_1","op":"Mul"},{"input":["bn_1/bn_1/mul_1","bn_1/bn_1/sub"],"attr":{"T":{"type":1}},"name":"bn_1/bn_1/add_1","op":"Add"},{"input":["bn_1/bn_1/add_1"],"attr":{"T":{"type":1}},"name":"bn_1/Relu","op":"Relu"},{"input":["bn_1/Relu"],"attr":{"ksize":{"list":{"s":[],"i":["1","3","3","1"],"f":[],"b":[],"type":[],"shape":[],"tensor":[],"func":[]}},"padding":{"s":[83,65,77,69]},"T":{"type":1},"strides":{"list":{"s":[],"i":["1","2","2","1"],"f":[],"b":[],"type":[],"shape":[],"tensor":[],"func":[]}},"data_format":{"s":[78,72,87,67]}},"name":"pool1","op":"MaxPool"},{"input":["pool1","conv_stage0_block0_proj_shortcut/weights"],"attr":{"padding":{"s":[83,65,77,69]},"dilations":{"list":{"s":[],"i":["1","1","1","1"],"f":[],"b":[],"type":[],"shape":[],"tensor":[],"func":[]}},"T":{"type":1},"data_format":{"s":[78,72,87,67]},"strides":{"list":{"s":[],"i":["1","1","1","1"],"f":[],"b":[],"type":[],"shape":[],"tensor":[],"func":[]}},"use_cudnn_on_gpu":{"b":true}},"name":"conv_stage0_block0_proj_shortcut/Conv2D","op":"Conv2D"},{"input":["pool1","conv_stage0_block0_branch2a/weights"],"attr":{"dilations":{"list":{"s":[],"i":["1","1","1","1"],"f":[],"b":[],"type":[],"shape":[],"tensor":[],"func":[]}},"T":{"type":1},"strides":{"list":{"s":[],"i":["1","1","1","1"],"f":[],"b":[],"type":[],"shape":[],"tensor":[],"func":[]}},"data_format":{"s":[78,72,87,67]},"use_cudnn_on_gpu":{"b":true},"padding":{"s":[83,65,77,69]}},"name":"conv_stage0_block0_branch2a/Conv2D","op":"Conv2D"},{"input":["conv_stage0_block0_proj_shortcut/Conv2D","conv_stage0_block0_proj_shortcut/biases"],"attr":{"T":{"type":1},"data_format":{"s":[78,72,87,67]}},"name":"conv_stage0_block0_proj_shortcut/BiasAdd","op":"BiasAdd"},{"input":["conv_stage0_block0_branch2a/Conv2D","conv_stage0_block0_branch2a/biases"],"attr":{"T":{"type":1},"data_format":{"s":[78,72,87,67]}},"name":"conv_stage0_block0_branch2a/BiasAdd","op":"BiasAdd"},{"input":["conv_stage0_block0_proj_shortcut/BiasAdd","bn_stage0_block0_proj_shortcut/bn_stage0_block0_proj_shortcut/mul"],"attr":{"T":{"type":1}},"name":"bn_stage0_block0_proj_shortcut/bn_stage0_block0_proj_shortcut/mul_1","op":"Mul"},{"input":["conv_stage0_block0_branch2a/BiasAdd","bn_stage0_block0_branch2a/bn_stage0_block0_branch2a/mul"],"attr":{"T":{"type":1}},"name":"bn_stage0_block0_branch2a/bn_stage0_block0_branch2a/mul_1","op":"Mul"},{"input":["bn_stage0_block0_branch2a/bn_stage0_block0_branch2a/mul_1","bn_stage0_block0_branch2a/bn_stage0_block0_branch2a/sub"],"attr":{"T":{"type":1}},"name":"bn_stage0_block0_branch2a/bn_stage0_block0_branch2a/add_1","op":"Add"},{"input":["bn_stage0_block0_branch2a/bn_stage0_block0_branch2a/add_1"],"attr":{"T":{"type":1}},"name":"bn_stage0_block0_branch2a/Relu","op":"Relu"},{"input":["bn_stage0_block0_branch2a/Relu","conv_stage0_block0_branch2b/weights"],"attr":{"dilations":{"list":{"s":[],"i":["1","1","1","1"],"f":[],"b":[],"type":[],"shape":[],"tensor":[],"func":[]}},"T":{"type":1},"strides":{"list":{"s":[],"i":["1","1","1","1"],"f":[],"b":[],"type":[],"shape":[],"tensor":[],"func":[]}},"data_format":{"s":[78,72,87,67]},"use_cudnn_on_gpu":{"b":true},"padding":{"s":[83,65,77,69]}},"name":"conv_stage0_block0_branch2b/Conv2D","op":"Conv2D"},{"input":["conv_stage0_block0_branch2b/Conv2D","conv_stage0_block0_branch2b/biases"],"attr":{"T":{"type":1},"data_format":{"s":[78,72,87,67]}},"name":"conv_stage0_block0_branch2b/BiasAdd","op":"BiasAdd"},{"input":["conv_stage0_block0_branch2b/BiasAdd","bn_stage0_block0_branch2b/bn_stage0_block0_branch2b/mul"],"attr":{"T":{"type":1}},"name":"bn_stage0_block0_branch2b/bn_stage0_block0_branch2b/mul_1","op":"Mul"},{"input":["bn_stage0_block0_branch2b/bn_stage0_block0_branch2b/mul_1","bn_stage0_block0_branch2b/bn_stage0_block0_branch2b/sub"],"attr":{"T":{"type":1}},"name":"bn_stage0_block0_branch2b/bn_stage0_block0_branch2b/add_1","op":"Add"},{"input":["bn_stage0_block0_branch2b/bn_stage0_block0_branch2b/add_1"],"attr":{"T":{"type":1}},"name":"bn_stage0_block0_branch2b/Relu","op":"Relu"},{"input":["bn_stage0_block0_branch2b/Relu","conv_stage0_block0_branch2c/weights"],"attr":{"dilations":{"list":{"s":[],"i":["1","1","1","1"],"f":[],"b":[],"type":[],"shape":[],"tensor":[],"func":[]}},"T":{"type":1},"strides":{"list":{"s":[],"i":["1","1","1","1"],"f":[],"b":[],"type":[],"shape":[],"tensor":[],"func":[]}},"data_format":{"s":[78,72,87,67]},"use_cudnn_on_gpu":{"b":true},"padding":{"s":[83,65,77,69]}},"name":"conv_stage0_block0_branch2c/Conv2D","op":"Conv2D"},{"input":["conv_stage0_block0_branch2c/Conv2D","conv_stage0_block0_branch2c/biases"],"attr":{"T":{"type":1},"data_format":{"s":[78,72,87,67]}},"name":"conv_stage0_block0_branch2c/BiasAdd","op":"BiasAdd"},{"input":["conv_stage0_block0_branch2c/BiasAdd","bn_stage0_block0_branch2c/bn_stage0_block0_branch2c/mul"],"attr":{"T":{"type":1}},"name":"bn_stage0_block0_branch2c/bn_stage0_block0_branch2c/mul_1","op":"Mul"},{"input":["bn_stage0_block0_proj_shortcut/bn_stage0_block0_proj_shortcut/mul_1","bn_stage0_block0_branch2c/bn_stage0_block0_branch2c/mul_1"],"attr":{"T":{"type":1},"_grappler:ArithmeticOptimizer:AddOpsRewriteStage":{"b":true},"N":{"i":"2"}},"name":"ArithmeticOptimizer/AddOpsRewrite_Leaf_1_eltwise_stage0_block0","op":"AddN"},{"input":["ArithmeticOptimizer/AddOpsRewrite_Leaf_0_eltwise_stage0_block0","ArithmeticOptimizer/AddOpsRewrite_Leaf_1_eltwise_stage0_block0"],"attr":{"T":{"type":1},"_grappler:ArithmeticOptimizer:AddOpsRewriteStage":{"b":true}},"name":"ArithmeticOptimizer/AddOpsRewrite_eltwise_stage0_block0","op":"Add"},{"input":["ArithmeticOptimizer/AddOpsRewrite_eltwise_stage0_block0"],"attr":{"T":{"type":1}},"name":"relu_stage0_block0","op":"Relu"},{"input":["relu_stage0_block0","conv_stage0_block1_branch2a/weights"],"attr":{"dilations":{"list":{"s":[],"i":["1","1","1","1"],"f":[],"b":[],"type":[],"shape":[],"tensor":[],"func":[]}},"T":{"type":1},"data_format":{"s":[78,72,87,67]},"strides":{"list":{"s":[],"i":["1","1","1","1"],"f":[],"b":[],"type":[],"shape":[],"tensor":[],"func":[]}},"use_cudnn_on_gpu":{"b":true},"padding":{"s":[83,65,77,69]}},"name":"conv_stage0_block1_branch2a/Conv2D","op":"Conv2D"},{"input":["conv_stage0_block1_branch2a/Conv2D","conv_stage0_block1_branch2a/biases"],"attr":{"T":{"type":1},"data_format":{"s":[78,72,87,67]}},"name":"conv_stage0_block1_branch2a/BiasAdd","op":"BiasAdd"},{"input":["conv_stage0_block1_branch2a/BiasAdd","bn_stage0_block1_branch2a/bn_stage0_block1_branch2a/mul"],"attr":{"T":{"type":1}},"name":"bn_stage0_block1_branch2a/bn_stage0_block1_branch2a/mul_1","op":"Mul"},{"input":["bn_stage0_block1_branch2a/bn_stage0_block1_branch2a/mul_1","bn_stage0_block1_branch2a/bn_stage0_block1_branch2a/sub"],"attr":{"T":{"type":1}},"name":"bn_stage0_block1_branch2a/bn_stage0_block1_branch2a/add_1","op":"Add"},{"input":["bn_stage0_block1_branch2a/bn_stage0_block1_branch2a/add_1"],"attr":{"T":{"type":1}},"name":"bn_stage0_block1_branch2a/Relu","op":"Relu"},{"input":["bn_stage0_block1_branch2a/Relu","conv_stage0_block1_branch2b/weights"],"attr":{"padding":{"s":[83,65,77,69]},"dilations":{"list":{"s":[],"i":["1","1","1","1"],"f":[],"b":[],"type":[],"shape":[],"tensor":[],"func":[]}},"T":{"type":1},"strides":{"list":{"s":[],"i":["1","1","1","1"],"f":[],"b":[],"type":[],"shape":[],"tensor":[],"func":[]}},"data_format":{"s":[78,72,87,67]},"use_cudnn_on_gpu":{"b":true}},"name":"conv_stage0_block1_branch2b/Conv2D","op":"Conv2D"},{"input":["conv_stage0_block1_branch2b/Conv2D","conv_stage0_block1_branch2b/biases"],"attr":{"T":{"type":1},"data_format":{"s":[78,72,87,67]}},"name":"conv_stage0_block1_branch2b/BiasAdd","op":"BiasAdd"},{"input":["conv_stage0_block1_branch2b/BiasAdd","bn_stage0_block1_branch2b/bn_stage0_block1_branch2b/mul"],"attr":{"T":{"type":1}},"name":"bn_stage0_block1_branch2b/bn_stage0_block1_branch2b/mul_1","op":"Mul"},{"input":["bn_stage0_block1_branch2b/bn_stage0_block1_branch2b/mul_1","bn_stage0_block1_branch2b/bn_stage0_block1_branch2b/sub"],"attr":{"T":{"type":1}},"name":"bn_stage0_block1_branch2b/bn_stage0_block1_branch2b/add_1","op":"Add"},{"input":["bn_stage0_block1_branch2b/bn_stage0_block1_branch2b/add_1"],"attr":{"T":{"type":1}},"name":"bn_stage0_block1_branch2b/Relu","op":"Relu"},{"input":["bn_stage0_block1_branch2b/Relu","conv_stage0_block1_branch2c/weights"],"attr":{"padding":{"s":[83,65,77,69]},"dilations":{"list":{"s":[],"i":["1","1","1","1"],"f":[],"b":[],"type":[],"shape":[],"tensor":[],"func":[]}},"T":{"type":1},"strides":{"list":{"s":[],"i":["1","1","1","1"],"f":[],"b":[],"type":[],"shape":[],"tensor":[],"func":[]}},"data_format":{"s":[78,72,87,67]},"use_cudnn_on_gpu":{"b":true}},"name":"conv_stage0_block1_branch2c/Conv2D","op":"Conv2D"},{"input":["conv_stage0_block1_branch2c/Conv2D","conv_stage0_block1_branch2c/biases"],"attr":{"T":{"type":1},"data_format":{"s":[78,72,87,67]}},"name":"conv_stage0_block1_branch2c/BiasAdd","op":"BiasAdd"},{"input":["conv_stage0_block1_branch2c/BiasAdd","bn_stage0_block1_branch2c/bn_stage0_block1_branch2c/mul"],"attr":{"T":{"type":1}},"name":"bn_stage0_block1_branch2c/bn_stage0_block1_branch2c/mul_1","op":"Mul"},{"input":["relu_stage0_block0","bn_stage0_block1_branch2c/bn_stage0_block1_branch2c/mul_1"],"attr":{"_grappler:ArithmeticOptimizer:AddOpsRewriteStage":{"b":true},"N":{"i":"2"},"T":{"type":1}},"name":"ArithmeticOptimizer/AddOpsRewrite_Leaf_1_eltwise_stage0_block1","op":"AddN"},{"input":["bn_stage0_block1_branch2c/bn_stage0_block1_branch2c/sub","ArithmeticOptimizer/AddOpsRewrite_Leaf_1_eltwise_stage0_block1"],"attr":{"T":{"type":1},"_grappler:ArithmeticOptimizer:AddOpsRewriteStage":{"b":true}},"name":"ArithmeticOptimizer/AddOpsRewrite_eltwise_stage0_block1","op":"Add"},{"input":["ArithmeticOptimizer/AddOpsRewrite_eltwise_stage0_block1"],"attr":{"T":{"type":1}},"name":"relu_stage0_block1","op":"Relu"},{"input":["relu_stage0_block1","conv_stage0_block2_branch2a/weights"],"attr":{"dilations":{"list":{"s":[],"i":["1","1","1","1"],"f":[],"b":[],"type":[],"shape":[],"tensor":[],"func":[]}},"T":{"type":1},"data_format":{"s":[78,72,87,67]},"strides":{"list":{"s":[],"i":["1","1","1","1"],"f":[],"b":[],"type":[],"shape":[],"tensor":[],"func":[]}},"use_cudnn_on_gpu":{"b":true},"padding":{"s":[83,65,77,69]}},"name":"conv_stage0_block2_branch2a/Conv2D","op":"Conv2D"},{"input":["conv_stage0_block2_branch2a/Conv2D","conv_stage0_block2_branch2a/biases"],"attr":{"data_format":{"s":[78,72,87,67]},"T":{"type":1}},"name":"conv_stage0_block2_branch2a/BiasAdd","op":"BiasAdd"},{"input":["conv_stage0_block2_branch2a/BiasAdd","bn_stage0_block2_branch2a/bn_stage0_block2_branch2a/mul"],"attr":{"T":{"type":1}},"name":"bn_stage0_block2_branch2a/bn_stage0_block2_branch2a/mul_1","op":"Mul"},{"input":["bn_stage0_block2_branch2a/bn_stage0_block2_branch2a/mul_1","bn_stage0_block2_branch2a/bn_stage0_block2_branch2a/sub"],"attr":{"T":{"type":1}},"name":"bn_stage0_block2_branch2a/bn_stage0_block2_branch2a/add_1","op":"Add"},{"input":["bn_stage0_block2_branch2a/bn_stage0_block2_branch2a/add_1"],"attr":{"T":{"type":1}},"name":"bn_stage0_block2_branch2a/Relu","op":"Relu"},{"input":["bn_stage0_block2_branch2a/Relu","conv_stage0_block2_branch2b/weights"],"attr":{"dilations":{"list":{"s":[],"i":["1","1","1","1"],"f":[],"b":[],"type":[],"shape":[],"tensor":[],"func":[]}},"T":{"type":1},"data_format":{"s":[78,72,87,67]},"strides":{"list":{"s":[],"i":["1","1","1","1"],"f":[],"b":[],"type":[],"shape":[],"tensor":[],"func":[]}},"use_cudnn_on_gpu":{"b":true},"padding":{"s":[83,65,77,69]}},"name":"conv_stage0_block2_branch2b/Conv2D","op":"Conv2D"},{"input":["conv_stage0_block2_branch2b/Conv2D","conv_stage0_block2_branch2b/biases"],"attr":{"T":{"type":1},"data_format":{"s":[78,72,87,67]}},"name":"conv_stage0_block2_branch2b/BiasAdd","op":"BiasAdd"},{"input":["conv_stage0_block2_branch2b/BiasAdd","bn_stage0_block2_branch2b/bn_stage0_block2_branch2b/mul"],"attr":{"T":{"type":1}},"name":"bn_stage0_block2_branch2b/bn_stage0_block2_branch2b/mul_1","op":"Mul"},{"input":["bn_stage0_block2_branch2b/bn_stage0_block2_branch2b/mul_1","bn_stage0_block2_branch2b/bn_stage0_block2_branch2b/sub"],"attr":{"T":{"type":1}},"name":"bn_stage0_block2_branch2b/bn_stage0_block2_branch2b/add_1","op":"Add"},{"input":["bn_stage0_block2_branch2b/bn_stage0_block2_branch2b/add_1"],"attr":{"T":{"type":1}},"name":"bn_stage0_block2_branch2b/Relu","op":"Relu"},{"input":["bn_stage0_block2_branch2b/Relu","conv_stage0_block2_branch2c/weights"],"attr":{"dilations":{"list":{"s":[],"i":["1","1","1","1"],"f":[],"b":[],"type":[],"shape":[],"tensor":[],"func":[]}},"T":{"type":1},"data_format":{"s":[78,72,87,67]},"strides":{"list":{"s":[],"i":["1","1","1","1"],"f":[],"b":[],"type":[],"shape":[],"tensor":[],"func":[]}},"use_cudnn_on_gpu":{"b":true},"padding":{"s":[83,65,77,69]}},"name":"conv_stage0_block2_branch2c/Conv2D","op":"Conv2D"},{"input":["conv_stage0_block2_branch2c/Conv2D","conv_stage0_block2_branch2c/biases"],"attr":{"data_format":{"s":[78,72,87,67]},"T":{"type":1}},"name":"conv_stage0_block2_branch2c/BiasAdd","op":"BiasAdd"},{"input":["conv_stage0_block2_branch2c/BiasAdd","bn_stage0_block2_branch2c/bn_stage0_block2_branch2c/mul"],"attr":{"T":{"type":1}},"name":"bn_stage0_block2_branch2c/bn_stage0_block2_branch2c/mul_1","op":"Mul"},{"input":["relu_stage0_block1","bn_stage0_block2_branch2c/bn_stage0_block2_branch2c/mul_1"],"attr":{"T":{"type":1},"_grappler:ArithmeticOptimizer:AddOpsRewriteStage":{"b":true},"N":{"i":"2"}},"name":"ArithmeticOptimizer/AddOpsRewrite_Leaf_1_eltwise_stage0_block2","op":"AddN"},{"input":["bn_stage0_block2_branch2c/bn_stage0_block2_branch2c/sub","ArithmeticOptimizer/AddOpsRewrite_Leaf_1_eltwise_stage0_block2"],"attr":{"_grappler:ArithmeticOptimizer:AddOpsRewriteStage":{"b":true},"T":{"type":1}},"name":"ArithmeticOptimizer/AddOpsRewrite_eltwise_stage0_block2","op":"Add"},{"input":["ArithmeticOptimizer/AddOpsRewrite_eltwise_stage0_block2"],"attr":{"T":{"type":1}},"name":"relu_stage0_block2","op":"Relu"},{"input":["relu_stage0_block2","conv_stage1_block0_proj_shortcut/weights"],"attr":{"padding":{"s":[83,65,77,69]},"dilations":{"list":{"s":[],"i":["1","1","1","1"],"f":[],"b":[],"type":[],"shape":[],"tensor":[],"func":[]}},"T":{"type":1},"data_format":{"s":[78,72,87,67]},"strides":{"list":{"s":[],"i":["1","2","2","1"],"f":[],"b":[],"type":[],"shape":[],"tensor":[],"func":[]}},"use_cudnn_on_gpu":{"b":true}},"name":"conv_stage1_block0_proj_shortcut/Conv2D","op":"Conv2D"},{"input":["relu_stage0_block2","conv_stage1_block0_branch2a/weights"],"attr":{"dilations":{"list":{"s":[],"i":["1","1","1","1"],"f":[],"b":[],"type":[],"shape":[],"tensor":[],"func":[]}},"T":{"type":1},"strides":{"list":{"s":[],"i":["1","2","2","1"],"f":[],"b":[],"type":[],"shape":[],"tensor":[],"func":[]}},"data_format":{"s":[78,72,87,67]},"use_cudnn_on_gpu":{"b":true},"padding":{"s":[83,65,77,69]}},"name":"conv_stage1_block0_branch2a/Conv2D","op":"Conv2D"},{"input":["conv_stage1_block0_proj_shortcut/Conv2D","conv_stage1_block0_proj_shortcut/biases"],"attr":{"data_format":{"s":[78,72,87,67]},"T":{"type":1}},"name":"conv_stage1_block0_proj_shortcut/BiasAdd","op":"BiasAdd"},{"input":["conv_stage1_block0_branch2a/Conv2D","conv_stage1_block0_branch2a/biases"],"attr":{"T":{"type":1},"data_format":{"s":[78,72,87,67]}},"name":"conv_stage1_block0_branch2a/BiasAdd","op":"BiasAdd"},{"input":["conv_stage1_block0_proj_shortcut/BiasAdd","bn_stage1_block0_proj_shortcut/bn_stage1_block0_proj_shortcut/mul"],"attr":{"T":{"type":1}},"name":"bn_stage1_block0_proj_shortcut/bn_stage1_block0_proj_shortcut/mul_1","op":"Mul"},{"input":["conv_stage1_block0_branch2a/BiasAdd","bn_stage1_block0_branch2a/bn_stage1_block0_branch2a/mul"],"attr":{"T":{"type":1}},"name":"bn_stage1_block0_branch2a/bn_stage1_block0_branch2a/mul_1","op":"Mul"},{"input":["bn_stage1_block0_branch2a/bn_stage1_block0_branch2a/mul_1","bn_stage1_block0_branch2a/bn_stage1_block0_branch2a/sub"],"attr":{"T":{"type":1}},"name":"bn_stage1_block0_branch2a/bn_stage1_block0_branch2a/add_1","op":"Add"},{"input":["bn_stage1_block0_branch2a/bn_stage1_block0_branch2a/add_1"],"attr":{"T":{"type":1}},"name":"bn_stage1_block0_branch2a/Relu","op":"Relu"},{"input":["bn_stage1_block0_branch2a/Relu","conv_stage1_block0_branch2b/weights"],"attr":{"dilations":{"list":{"s":[],"i":["1","1","1","1"],"f":[],"b":[],"type":[],"shape":[],"tensor":[],"func":[]}},"T":{"type":1},"strides":{"list":{"s":[],"i":["1","1","1","1"],"f":[],"b":[],"type":[],"shape":[],"tensor":[],"func":[]}},"data_format":{"s":[78,72,87,67]},"use_cudnn_on_gpu":{"b":true},"padding":{"s":[83,65,77,69]}},"name":"conv_stage1_block0_branch2b/Conv2D","op":"Conv2D"},{"input":["conv_stage1_block0_branch2b/Conv2D","conv_stage1_block0_branch2b/biases"],"attr":{"data_format":{"s":[78,72,87,67]},"T":{"type":1}},"name":"conv_stage1_block0_branch2b/BiasAdd","op":"BiasAdd"},{"input":["conv_stage1_block0_branch2b/BiasAdd","bn_stage1_block0_branch2b/bn_stage1_block0_branch2b/mul"],"attr":{"T":{"type":1}},"name":"bn_stage1_block0_branch2b/bn_stage1_block0_branch2b/mul_1","op":"Mul"},{"input":["bn_stage1_block0_branch2b/bn_stage1_block0_branch2b/mul_1","bn_stage1_block0_branch2b/bn_stage1_block0_branch2b/sub"],"attr":{"T":{"type":1}},"name":"bn_stage1_block0_branch2b/bn_stage1_block0_branch2b/add_1","op":"Add"},{"input":["bn_stage1_block0_branch2b/bn_stage1_block0_branch2b/add_1"],"attr":{"T":{"type":1}},"name":"bn_stage1_block0_branch2b/Relu","op":"Relu"},{"input":["bn_stage1_block0_branch2b/Relu","conv_stage1_block0_branch2c/weights"],"attr":{"dilations":{"list":{"s":[],"i":["1","1","1","1"],"f":[],"b":[],"type":[],"shape":[],"tensor":[],"func":[]}},"T":{"type":1},"strides":{"list":{"s":[],"i":["1","1","1","1"],"f":[],"b":[],"type":[],"shape":[],"tensor":[],"func":[]}},"data_format":{"s":[78,72,87,67]},"use_cudnn_on_gpu":{"b":true},"padding":{"s":[83,65,77,69]}},"name":"conv_stage1_block0_branch2c/Conv2D","op":"Conv2D"},{"input":["conv_stage1_block0_branch2c/Conv2D","conv_stage1_block0_branch2c/biases"],"attr":{"T":{"type":1},"data_format":{"s":[78,72,87,67]}},"name":"conv_stage1_block0_branch2c/BiasAdd","op":"BiasAdd"},{"input":["conv_stage1_block0_branch2c/BiasAdd","bn_stage1_block0_branch2c/bn_stage1_block0_branch2c/mul"],"attr":{"T":{"type":1}},"name":"bn_stage1_block0_branch2c/bn_stage1_block0_branch2c/mul_1","op":"Mul"},{"input":["bn_stage1_block0_proj_shortcut/bn_stage1_block0_proj_shortcut/mul_1","bn_stage1_block0_branch2c/bn_stage1_block0_branch2c/mul_1"],"attr":{"_grappler:ArithmeticOptimizer:AddOpsRewriteStage":{"b":true},"N":{"i":"2"},"T":{"type":1}},"name":"ArithmeticOptimizer/AddOpsRewrite_Leaf_1_eltwise_stage1_block0","op":"AddN"},{"input":["ArithmeticOptimizer/AddOpsRewrite_Leaf_0_eltwise_stage1_block0","ArithmeticOptimizer/AddOpsRewrite_Leaf_1_eltwise_stage1_block0"],"attr":{"T":{"type":1},"_grappler:ArithmeticOptimizer:AddOpsRewriteStage":{"b":true}},"name":"ArithmeticOptimizer/AddOpsRewrite_eltwise_stage1_block0","op":"Add"},{"input":["ArithmeticOptimizer/AddOpsRewrite_eltwise_stage1_block0"],"attr":{"T":{"type":1}},"name":"relu_stage1_block0","op":"Relu"},{"input":["relu_stage1_block0","conv_stage1_block1_branch2a/weights"],"attr":{"padding":{"s":[83,65,77,69]},"dilations":{"list":{"s":[],"i":["1","1","1","1"],"f":[],"b":[],"type":[],"shape":[],"tensor":[],"func":[]}},"T":{"type":1},"strides":{"list":{"s":[],"i":["1","1","1","1"],"f":[],"b":[],"type":[],"shape":[],"tensor":[],"func":[]}},"data_format":{"s":[78,72,87,67]},"use_cudnn_on_gpu":{"b":true}},"name":"conv_stage1_block1_branch2a/Conv2D","op":"Conv2D"},{"input":["conv_stage1_block1_branch2a/Conv2D","conv_stage1_block1_branch2a/biases"],"attr":{"T":{"type":1},"data_format":{"s":[78,72,87,67]}},"name":"conv_stage1_block1_branch2a/BiasAdd","op":"BiasAdd"},{"input":["conv_stage1_block1_branch2a/BiasAdd","bn_stage1_block1_branch2a/bn_stage1_block1_branch2a/mul"],"attr":{"T":{"type":1}},"name":"bn_stage1_block1_branch2a/bn_stage1_block1_branch2a/mul_1","op":"Mul"},{"input":["bn_stage1_block1_branch2a/bn_stage1_block1_branch2a/mul_1","bn_stage1_block1_branch2a/bn_stage1_block1_branch2a/sub"],"attr":{"T":{"type":1}},"name":"bn_stage1_block1_branch2a/bn_stage1_block1_branch2a/add_1","op":"Add"},{"input":["bn_stage1_block1_branch2a/bn_stage1_block1_branch2a/add_1"],"attr":{"T":{"type":1}},"name":"bn_stage1_block1_branch2a/Relu","op":"Relu"},{"input":["bn_stage1_block1_branch2a/Relu","conv_stage1_block1_branch2b/weights"],"attr":{"dilations":{"list":{"s":[],"i":["1","1","1","1"],"f":[],"b":[],"type":[],"shape":[],"tensor":[],"func":[]}},"T":{"type":1},"data_format":{"s":[78,72,87,67]},"strides":{"list":{"s":[],"i":["1","1","1","1"],"f":[],"b":[],"type":[],"shape":[],"tensor":[],"func":[]}},"use_cudnn_on_gpu":{"b":true},"padding":{"s":[83,65,77,69]}},"name":"conv_stage1_block1_branch2b/Conv2D","op":"Conv2D"},{"input":["conv_stage1_block1_branch2b/Conv2D","conv_stage1_block1_branch2b/biases"],"attr":{"T":{"type":1},"data_format":{"s":[78,72,87,67]}},"name":"conv_stage1_block1_branch2b/BiasAdd","op":"BiasAdd"},{"input":["conv_stage1_block1_branch2b/BiasAdd","bn_stage1_block1_branch2b/bn_stage1_block1_branch2b/mul"],"attr":{"T":{"type":1}},"name":"bn_stage1_block1_branch2b/bn_stage1_block1_branch2b/mul_1","op":"Mul"},{"input":["bn_stage1_block1_branch2b/bn_stage1_block1_branch2b/mul_1","bn_stage1_block1_branch2b/bn_stage1_block1_branch2b/sub"],"attr":{"T":{"type":1}},"name":"bn_stage1_block1_branch2b/bn_stage1_block1_branch2b/add_1","op":"Add"},{"input":["bn_stage1_block1_branch2b/bn_stage1_block1_branch2b/add_1"],"attr":{"T":{"type":1}},"name":"bn_stage1_block1_branch2b/Relu","op":"Relu"},{"input":["bn_stage1_block1_branch2b/Relu","conv_stage1_block1_branch2c/weights"],"attr":{"padding":{"s":[83,65,77,69]},"dilations":{"list":{"s":[],"i":["1","1","1","1"],"f":[],"b":[],"type":[],"shape":[],"tensor":[],"func":[]}},"T":{"type":1},"data_format":{"s":[78,72,87,67]},"strides":{"list":{"s":[],"i":["1","1","1","1"],"f":[],"b":[],"type":[],"shape":[],"tensor":[],"func":[]}},"use_cudnn_on_gpu":{"b":true}},"name":"conv_stage1_block1_branch2c/Conv2D","op":"Conv2D"},{"input":["conv_stage1_block1_branch2c/Conv2D","conv_stage1_block1_branch2c/biases"],"attr":{"T":{"type":1},"data_format":{"s":[78,72,87,67]}},"name":"conv_stage1_block1_branch2c/BiasAdd","op":"BiasAdd"},{"input":["conv_stage1_block1_branch2c/BiasAdd","bn_stage1_block1_branch2c/bn_stage1_block1_branch2c/mul"],"attr":{"T":{"type":1}},"name":"bn_stage1_block1_branch2c/bn_stage1_block1_branch2c/mul_1","op":"Mul"},{"input":["relu_stage1_block0","bn_stage1_block1_branch2c/bn_stage1_block1_branch2c/mul_1"],"attr":{"T":{"type":1},"_grappler:ArithmeticOptimizer:AddOpsRewriteStage":{"b":true},"N":{"i":"2"}},"name":"ArithmeticOptimizer/AddOpsRewrite_Leaf_1_eltwise_stage1_block1","op":"AddN"},{"input":["bn_stage1_block1_branch2c/bn_stage1_block1_branch2c/sub","ArithmeticOptimizer/AddOpsRewrite_Leaf_1_eltwise_stage1_block1"],"attr":{"_grappler:ArithmeticOptimizer:AddOpsRewriteStage":{"b":true},"T":{"type":1}},"name":"ArithmeticOptimizer/AddOpsRewrite_eltwise_stage1_block1","op":"Add"},{"input":["ArithmeticOptimizer/AddOpsRewrite_eltwise_stage1_block1"],"attr":{"T":{"type":1}},"name":"relu_stage1_block1","op":"Relu"},{"input":["relu_stage1_block1","conv_stage1_block2_branch2a/weights"],"attr":{"padding":{"s":[83,65,77,69]},"dilations":{"list":{"s":[],"i":["1","1","1","1"],"f":[],"b":[],"type":[],"shape":[],"tensor":[],"func":[]}},"T":{"type":1},"strides":{"list":{"s":[],"i":["1","1","1","1"],"f":[],"b":[],"type":[],"shape":[],"tensor":[],"func":[]}},"data_format":{"s":[78,72,87,67]},"use_cudnn_on_gpu":{"b":true}},"name":"conv_stage1_block2_branch2a/Conv2D","op":"Conv2D"},{"input":["conv_stage1_block2_branch2a/Conv2D","conv_stage1_block2_branch2a/biases"],"attr":{"T":{"type":1},"data_format":{"s":[78,72,87,67]}},"name":"conv_stage1_block2_branch2a/BiasAdd","op":"BiasAdd"},{"input":["conv_stage1_block2_branch2a/BiasAdd","bn_stage1_block2_branch2a/bn_stage1_block2_branch2a/mul"],"attr":{"T":{"type":1}},"name":"bn_stage1_block2_branch2a/bn_stage1_block2_branch2a/mul_1","op":"Mul"},{"input":["bn_stage1_block2_branch2a/bn_stage1_block2_branch2a/mul_1","bn_stage1_block2_branch2a/bn_stage1_block2_branch2a/sub"],"attr":{"T":{"type":1}},"name":"bn_stage1_block2_branch2a/bn_stage1_block2_branch2a/add_1","op":"Add"},{"input":["bn_stage1_block2_branch2a/bn_stage1_block2_branch2a/add_1"],"attr":{"T":{"type":1}},"name":"bn_stage1_block2_branch2a/Relu","op":"Relu"},{"input":["bn_stage1_block2_branch2a/Relu","conv_stage1_block2_branch2b/weights"],"attr":{"dilations":{"list":{"s":[],"i":["1","1","1","1"],"f":[],"b":[],"type":[],"shape":[],"tensor":[],"func":[]}},"T":{"type":1},"strides":{"list":{"s":[],"i":["1","1","1","1"],"f":[],"b":[],"type":[],"shape":[],"tensor":[],"func":[]}},"data_format":{"s":[78,72,87,67]},"use_cudnn_on_gpu":{"b":true},"padding":{"s":[83,65,77,69]}},"name":"conv_stage1_block2_branch2b/Conv2D","op":"Conv2D"},{"input":["conv_stage1_block2_branch2b/Conv2D","conv_stage1_block2_branch2b/biases"],"attr":{"T":{"type":1},"data_format":{"s":[78,72,87,67]}},"name":"conv_stage1_block2_branch2b/BiasAdd","op":"BiasAdd"},{"input":["conv_stage1_block2_branch2b/BiasAdd","bn_stage1_block2_branch2b/bn_stage1_block2_branch2b/mul"],"attr":{"T":{"type":1}},"name":"bn_stage1_block2_branch2b/bn_stage1_block2_branch2b/mul_1","op":"Mul"},{"input":["bn_stage1_block2_branch2b/bn_stage1_block2_branch2b/mul_1","bn_stage1_block2_branch2b/bn_stage1_block2_branch2b/sub"],"attr":{"T":{"type":1}},"name":"bn_stage1_block2_branch2b/bn_stage1_block2_branch2b/add_1","op":"Add"},{"input":["bn_stage1_block2_branch2b/bn_stage1_block2_branch2b/add_1"],"attr":{"T":{"type":1}},"name":"bn_stage1_block2_branch2b/Relu","op":"Relu"},{"input":["bn_stage1_block2_branch2b/Relu","conv_stage1_block2_branch2c/weights"],"attr":{"data_format":{"s":[78,72,87,67]},"strides":{"list":{"s":[],"i":["1","1","1","1"],"f":[],"b":[],"type":[],"shape":[],"tensor":[],"func":[]}},"use_cudnn_on_gpu":{"b":true},"padding":{"s":[83,65,77,69]},"dilations":{"list":{"s":[],"i":["1","1","1","1"],"f":[],"b":[],"type":[],"shape":[],"tensor":[],"func":[]}},"T":{"type":1}},"name":"conv_stage1_block2_branch2c/Conv2D","op":"Conv2D"},{"input":["conv_stage1_block2_branch2c/Conv2D","conv_stage1_block2_branch2c/biases"],"attr":{"T":{"type":1},"data_format":{"s":[78,72,87,67]}},"name":"conv_stage1_block2_branch2c/BiasAdd","op":"BiasAdd"},{"input":["conv_stage1_block2_branch2c/BiasAdd","bn_stage1_block2_branch2c/bn_stage1_block2_branch2c/mul"],"attr":{"T":{"type":1}},"name":"bn_stage1_block2_branch2c/bn_stage1_block2_branch2c/mul_1","op":"Mul"},{"input":["relu_stage1_block1","bn_stage1_block2_branch2c/bn_stage1_block2_branch2c/mul_1"],"attr":{"T":{"type":1},"_grappler:ArithmeticOptimizer:AddOpsRewriteStage":{"b":true},"N":{"i":"2"}},"name":"ArithmeticOptimizer/AddOpsRewrite_Leaf_1_eltwise_stage1_block2","op":"AddN"},{"input":["bn_stage1_block2_branch2c/bn_stage1_block2_branch2c/sub","ArithmeticOptimizer/AddOpsRewrite_Leaf_1_eltwise_stage1_block2"],"attr":{"_grappler:ArithmeticOptimizer:AddOpsRewriteStage":{"b":true},"T":{"type":1}},"name":"ArithmeticOptimizer/AddOpsRewrite_eltwise_stage1_block2","op":"Add"},{"input":["ArithmeticOptimizer/AddOpsRewrite_eltwise_stage1_block2"],"attr":{"T":{"type":1}},"name":"relu_stage1_block2","op":"Relu"},{"input":["relu_stage1_block2","conv_stage1_block3_branch2a/weights"],"attr":{"dilations":{"list":{"s":[],"i":["1","1","1","1"],"f":[],"b":[],"type":[],"shape":[],"tensor":[],"func":[]}},"T":{"type":1},"strides":{"list":{"s":[],"i":["1","1","1","1"],"f":[],"b":[],"type":[],"shape":[],"tensor":[],"func":[]}},"data_format":{"s":[78,72,87,67]},"use_cudnn_on_gpu":{"b":true},"padding":{"s":[83,65,77,69]}},"name":"conv_stage1_block3_branch2a/Conv2D","op":"Conv2D"},{"input":["conv_stage1_block3_branch2a/Conv2D","conv_stage1_block3_branch2a/biases"],"attr":{"data_format":{"s":[78,72,87,67]},"T":{"type":1}},"name":"conv_stage1_block3_branch2a/BiasAdd","op":"BiasAdd"},{"input":["conv_stage1_block3_branch2a/BiasAdd","bn_stage1_block3_branch2a/bn_stage1_block3_branch2a/mul"],"attr":{"T":{"type":1}},"name":"bn_stage1_block3_branch2a/bn_stage1_block3_branch2a/mul_1","op":"Mul"},{"input":["bn_stage1_block3_branch2a/bn_stage1_block3_branch2a/mul_1","bn_stage1_block3_branch2a/bn_stage1_block3_branch2a/sub"],"attr":{"T":{"type":1}},"name":"bn_stage1_block3_branch2a/bn_stage1_block3_branch2a/add_1","op":"Add"},{"input":["bn_stage1_block3_branch2a/bn_stage1_block3_branch2a/add_1"],"attr":{"T":{"type":1}},"name":"bn_stage1_block3_branch2a/Relu","op":"Relu"},{"input":["bn_stage1_block3_branch2a/Relu","conv_stage1_block3_branch2b/weights"],"attr":{"T":{"type":1},"strides":{"list":{"s":[],"i":["1","1","1","1"],"f":[],"b":[],"type":[],"shape":[],"tensor":[],"func":[]}},"data_format":{"s":[78,72,87,67]},"use_cudnn_on_gpu":{"b":true},"padding":{"s":[83,65,77,69]},"dilations":{"list":{"s":[],"i":["1","1","1","1"],"f":[],"b":[],"type":[],"shape":[],"tensor":[],"func":[]}}},"name":"conv_stage1_block3_branch2b/Conv2D","op":"Conv2D"},{"input":["conv_stage1_block3_branch2b/Conv2D","conv_stage1_block3_branch2b/biases"],"attr":{"T":{"type":1},"data_format":{"s":[78,72,87,67]}},"name":"conv_stage1_block3_branch2b/BiasAdd","op":"BiasAdd"},{"input":["conv_stage1_block3_branch2b/BiasAdd","bn_stage1_block3_branch2b/bn_stage1_block3_branch2b/mul"],"attr":{"T":{"type":1}},"name":"bn_stage1_block3_branch2b/bn_stage1_block3_branch2b/mul_1","op":"Mul"},{"input":["bn_stage1_block3_branch2b/bn_stage1_block3_branch2b/mul_1","bn_stage1_block3_branch2b/bn_stage1_block3_branch2b/sub"],"attr":{"T":{"type":1}},"name":"bn_stage1_block3_branch2b/bn_stage1_block3_branch2b/add_1","op":"Add"},{"input":["bn_stage1_block3_branch2b/bn_stage1_block3_branch2b/add_1"],"attr":{"T":{"type":1}},"name":"bn_stage1_block3_branch2b/Relu","op":"Relu"},{"input":["bn_stage1_block3_branch2b/Relu","conv_stage1_block3_branch2c/weights"],"attr":{"padding":{"s":[83,65,77,69]},"dilations":{"list":{"s":[],"i":["1","1","1","1"],"f":[],"b":[],"type":[],"shape":[],"tensor":[],"func":[]}},"T":{"type":1},"strides":{"list":{"s":[],"i":["1","1","1","1"],"f":[],"b":[],"type":[],"shape":[],"tensor":[],"func":[]}},"data_format":{"s":[78,72,87,67]},"use_cudnn_on_gpu":{"b":true}},"name":"conv_stage1_block3_branch2c/Conv2D","op":"Conv2D"},{"input":["conv_stage1_block3_branch2c/Conv2D","conv_stage1_block3_branch2c/biases"],"attr":{"T":{"type":1},"data_format":{"s":[78,72,87,67]}},"name":"conv_stage1_block3_branch2c/BiasAdd","op":"BiasAdd"},{"input":["conv_stage1_block3_branch2c/BiasAdd","bn_stage1_block3_branch2c/bn_stage1_block3_branch2c/mul"],"attr":{"T":{"type":1}},"name":"bn_stage1_block3_branch2c/bn_stage1_block3_branch2c/mul_1","op":"Mul"},{"input":["relu_stage1_block2","bn_stage1_block3_branch2c/bn_stage1_block3_branch2c/mul_1"],"attr":{"_grappler:ArithmeticOptimizer:AddOpsRewriteStage":{"b":true},"N":{"i":"2"},"T":{"type":1}},"name":"ArithmeticOptimizer/AddOpsRewrite_Leaf_1_eltwise_stage1_block3","op":"AddN"},{"input":["bn_stage1_block3_branch2c/bn_stage1_block3_branch2c/sub","ArithmeticOptimizer/AddOpsRewrite_Leaf_1_eltwise_stage1_block3"],"attr":{"_grappler:ArithmeticOptimizer:AddOpsRewriteStage":{"b":true},"T":{"type":1}},"name":"ArithmeticOptimizer/AddOpsRewrite_eltwise_stage1_block3","op":"Add"},{"input":["ArithmeticOptimizer/AddOpsRewrite_eltwise_stage1_block3"],"attr":{"T":{"type":1}},"name":"relu_stage1_block3","op":"Relu"},{"input":["relu_stage1_block3","conv_stage2_block0_proj_shortcut/weights"],"attr":{"dilations":{"list":{"s":[],"i":["1","1","1","1"],"f":[],"b":[],"type":[],"shape":[],"tensor":[],"func":[]}},"T":{"type":1},"strides":{"list":{"s":[],"i":["1","2","2","1"],"f":[],"b":[],"type":[],"shape":[],"tensor":[],"func":[]}},"data_format":{"s":[78,72,87,67]},"use_cudnn_on_gpu":{"b":true},"padding":{"s":[83,65,77,69]}},"name":"conv_stage2_block0_proj_shortcut/Conv2D","op":"Conv2D"},{"input":["relu_stage1_block3","conv_stage2_block0_branch2a/weights"],"attr":{"dilations":{"list":{"s":[],"i":["1","1","1","1"],"f":[],"b":[],"type":[],"shape":[],"tensor":[],"func":[]}},"T":{"type":1},"strides":{"list":{"s":[],"i":["1","2","2","1"],"f":[],"b":[],"type":[],"shape":[],"tensor":[],"func":[]}},"data_format":{"s":[78,72,87,67]},"use_cudnn_on_gpu":{"b":true},"padding":{"s":[83,65,77,69]}},"name":"conv_stage2_block0_branch2a/Conv2D","op":"Conv2D"},{"input":["conv_stage2_block0_proj_shortcut/Conv2D","conv_stage2_block0_proj_shortcut/biases"],"attr":{"T":{"type":1},"data_format":{"s":[78,72,87,67]}},"name":"conv_stage2_block0_proj_shortcut/BiasAdd","op":"BiasAdd"},{"input":["conv_stage2_block0_branch2a/Conv2D","conv_stage2_block0_branch2a/biases"],"attr":{"T":{"type":1},"data_format":{"s":[78,72,87,67]}},"name":"conv_stage2_block0_branch2a/BiasAdd","op":"BiasAdd"},{"input":["conv_stage2_block0_proj_shortcut/BiasAdd","bn_stage2_block0_proj_shortcut/bn_stage2_block0_proj_shortcut/mul"],"attr":{"T":{"type":1}},"name":"bn_stage2_block0_proj_shortcut/bn_stage2_block0_proj_shortcut/mul_1","op":"Mul"},{"input":["conv_stage2_block0_branch2a/BiasAdd","bn_stage2_block0_branch2a/bn_stage2_block0_branch2a/mul"],"attr":{"T":{"type":1}},"name":"bn_stage2_block0_branch2a/bn_stage2_block0_branch2a/mul_1","op":"Mul"},{"input":["bn_stage2_block0_branch2a/bn_stage2_block0_branch2a/mul_1","bn_stage2_block0_branch2a/bn_stage2_block0_branch2a/sub"],"attr":{"T":{"type":1}},"name":"bn_stage2_block0_branch2a/bn_stage2_block0_branch2a/add_1","op":"Add"},{"input":["bn_stage2_block0_branch2a/bn_stage2_block0_branch2a/add_1"],"attr":{"T":{"type":1}},"name":"bn_stage2_block0_branch2a/Relu","op":"Relu"},{"input":["bn_stage2_block0_branch2a/Relu","conv_stage2_block0_branch2b/weights"],"attr":{"strides":{"list":{"s":[],"i":["1","1","1","1"],"f":[],"b":[],"type":[],"shape":[],"tensor":[],"func":[]}},"data_format":{"s":[78,72,87,67]},"use_cudnn_on_gpu":{"b":true},"padding":{"s":[83,65,77,69]},"dilations":{"list":{"s":[],"i":["1","1","1","1"],"f":[],"b":[],"type":[],"shape":[],"tensor":[],"func":[]}},"T":{"type":1}},"name":"conv_stage2_block0_branch2b/Conv2D","op":"Conv2D"},{"input":["conv_stage2_block0_branch2b/Conv2D","conv_stage2_block0_branch2b/biases"],"attr":{"T":{"type":1},"data_format":{"s":[78,72,87,67]}},"name":"conv_stage2_block0_branch2b/BiasAdd","op":"BiasAdd"},{"input":["conv_stage2_block0_branch2b/BiasAdd","bn_stage2_block0_branch2b/bn_stage2_block0_branch2b/mul"],"attr":{"T":{"type":1}},"name":"bn_stage2_block0_branch2b/bn_stage2_block0_branch2b/mul_1","op":"Mul"},{"input":["bn_stage2_block0_branch2b/bn_stage2_block0_branch2b/mul_1","bn_stage2_block0_branch2b/bn_stage2_block0_branch2b/sub"],"attr":{"T":{"type":1}},"name":"bn_stage2_block0_branch2b/bn_stage2_block0_branch2b/add_1","op":"Add"},{"input":["bn_stage2_block0_branch2b/bn_stage2_block0_branch2b/add_1"],"attr":{"T":{"type":1}},"name":"bn_stage2_block0_branch2b/Relu","op":"Relu"},{"input":["bn_stage2_block0_branch2b/Relu","conv_stage2_block0_branch2c/weights"],"attr":{"dilations":{"list":{"s":[],"i":["1","1","1","1"],"f":[],"b":[],"type":[],"shape":[],"tensor":[],"func":[]}},"T":{"type":1},"data_format":{"s":[78,72,87,67]},"strides":{"list":{"s":[],"i":["1","1","1","1"],"f":[],"b":[],"type":[],"shape":[],"tensor":[],"func":[]}},"use_cudnn_on_gpu":{"b":true},"padding":{"s":[83,65,77,69]}},"name":"conv_stage2_block0_branch2c/Conv2D","op":"Conv2D"},{"input":["conv_stage2_block0_branch2c/Conv2D","conv_stage2_block0_branch2c/biases"],"attr":{"data_format":{"s":[78,72,87,67]},"T":{"type":1}},"name":"conv_stage2_block0_branch2c/BiasAdd","op":"BiasAdd"},{"input":["conv_stage2_block0_branch2c/BiasAdd","bn_stage2_block0_branch2c/bn_stage2_block0_branch2c/mul"],"attr":{"T":{"type":1}},"name":"bn_stage2_block0_branch2c/bn_stage2_block0_branch2c/mul_1","op":"Mul"},{"input":["bn_stage2_block0_proj_shortcut/bn_stage2_block0_proj_shortcut/mul_1","bn_stage2_block0_branch2c/bn_stage2_block0_branch2c/mul_1"],"attr":{"T":{"type":1},"_grappler:ArithmeticOptimizer:AddOpsRewriteStage":{"b":true},"N":{"i":"2"}},"name":"ArithmeticOptimizer/AddOpsRewrite_Leaf_1_eltwise_stage2_block0","op":"AddN"},{"input":["ArithmeticOptimizer/AddOpsRewrite_Leaf_0_eltwise_stage2_block0","ArithmeticOptimizer/AddOpsRewrite_Leaf_1_eltwise_stage2_block0"],"attr":{"T":{"type":1},"_grappler:ArithmeticOptimizer:AddOpsRewriteStage":{"b":true}},"name":"ArithmeticOptimizer/AddOpsRewrite_eltwise_stage2_block0","op":"Add"},{"input":["ArithmeticOptimizer/AddOpsRewrite_eltwise_stage2_block0"],"attr":{"T":{"type":1}},"name":"relu_stage2_block0","op":"Relu"},{"input":["relu_stage2_block0","conv_stage2_block1_branch2a/weights"],"attr":{"padding":{"s":[83,65,77,69]},"dilations":{"list":{"s":[],"i":["1","1","1","1"],"f":[],"b":[],"type":[],"shape":[],"tensor":[],"func":[]}},"T":{"type":1},"strides":{"list":{"s":[],"i":["1","1","1","1"],"f":[],"b":[],"type":[],"shape":[],"tensor":[],"func":[]}},"data_format":{"s":[78,72,87,67]},"use_cudnn_on_gpu":{"b":true}},"name":"conv_stage2_block1_branch2a/Conv2D","op":"Conv2D"},{"input":["conv_stage2_block1_branch2a/Conv2D","conv_stage2_block1_branch2a/biases"],"attr":{"T":{"type":1},"data_format":{"s":[78,72,87,67]}},"name":"conv_stage2_block1_branch2a/BiasAdd","op":"BiasAdd"},{"input":["conv_stage2_block1_branch2a/BiasAdd","bn_stage2_block1_branch2a/bn_stage2_block1_branch2a/mul"],"attr":{"T":{"type":1}},"name":"bn_stage2_block1_branch2a/bn_stage2_block1_branch2a/mul_1","op":"Mul"},{"input":["bn_stage2_block1_branch2a/bn_stage2_block1_branch2a/mul_1","bn_stage2_block1_branch2a/bn_stage2_block1_branch2a/sub"],"attr":{"T":{"type":1}},"name":"bn_stage2_block1_branch2a/bn_stage2_block1_branch2a/add_1","op":"Add"},{"input":["bn_stage2_block1_branch2a/bn_stage2_block1_branch2a/add_1"],"attr":{"T":{"type":1}},"name":"bn_stage2_block1_branch2a/Relu","op":"Relu"},{"input":["bn_stage2_block1_branch2a/Relu","conv_stage2_block1_branch2b/weights"],"attr":{"dilations":{"list":{"s":[],"i":["1","1","1","1"],"f":[],"b":[],"type":[],"shape":[],"tensor":[],"func":[]}},"T":{"type":1},"data_format":{"s":[78,72,87,67]},"strides":{"list":{"s":[],"i":["1","1","1","1"],"f":[],"b":[],"type":[],"shape":[],"tensor":[],"func":[]}},"use_cudnn_on_gpu":{"b":true},"padding":{"s":[83,65,77,69]}},"name":"conv_stage2_block1_branch2b/Conv2D","op":"Conv2D"},{"input":["conv_stage2_block1_branch2b/Conv2D","conv_stage2_block1_branch2b/biases"],"attr":{"T":{"type":1},"data_format":{"s":[78,72,87,67]}},"name":"conv_stage2_block1_branch2b/BiasAdd","op":"BiasAdd"},{"input":["conv_stage2_block1_branch2b/BiasAdd","bn_stage2_block1_branch2b/bn_stage2_block1_branch2b/mul"],"attr":{"T":{"type":1}},"name":"bn_stage2_block1_branch2b/bn_stage2_block1_branch2b/mul_1","op":"Mul"},{"input":["bn_stage2_block1_branch2b/bn_stage2_block1_branch2b/mul_1","bn_stage2_block1_branch2b/bn_stage2_block1_branch2b/sub"],"attr":{"T":{"type":1}},"name":"bn_stage2_block1_branch2b/bn_stage2_block1_branch2b/add_1","op":"Add"},{"input":["bn_stage2_block1_branch2b/bn_stage2_block1_branch2b/add_1"],"attr":{"T":{"type":1}},"name":"bn_stage2_block1_branch2b/Relu","op":"Relu"},{"input":["bn_stage2_block1_branch2b/Relu","conv_stage2_block1_branch2c/weights"],"attr":{"padding":{"s":[83,65,77,69]},"dilations":{"list":{"s":[],"i":["1","1","1","1"],"f":[],"b":[],"type":[],"shape":[],"tensor":[],"func":[]}},"T":{"type":1},"strides":{"list":{"s":[],"i":["1","1","1","1"],"f":[],"b":[],"type":[],"shape":[],"tensor":[],"func":[]}},"data_format":{"s":[78,72,87,67]},"use_cudnn_on_gpu":{"b":true}},"name":"conv_stage2_block1_branch2c/Conv2D","op":"Conv2D"},{"input":["conv_stage2_block1_branch2c/Conv2D","conv_stage2_block1_branch2c/biases"],"attr":{"T":{"type":1},"data_format":{"s":[78,72,87,67]}},"name":"conv_stage2_block1_branch2c/BiasAdd","op":"BiasAdd"},{"input":["conv_stage2_block1_branch2c/BiasAdd","bn_stage2_block1_branch2c/bn_stage2_block1_branch2c/mul"],"attr":{"T":{"type":1}},"name":"bn_stage2_block1_branch2c/bn_stage2_block1_branch2c/mul_1","op":"Mul"},{"input":["relu_stage2_block0","bn_stage2_block1_branch2c/bn_stage2_block1_branch2c/mul_1"],"attr":{"_grappler:ArithmeticOptimizer:AddOpsRewriteStage":{"b":true},"N":{"i":"2"},"T":{"type":1}},"name":"ArithmeticOptimizer/AddOpsRewrite_Leaf_1_eltwise_stage2_block1","op":"AddN"},{"input":["bn_stage2_block1_branch2c/bn_stage2_block1_branch2c/sub","ArithmeticOptimizer/AddOpsRewrite_Leaf_1_eltwise_stage2_block1"],"attr":{"T":{"type":1},"_grappler:ArithmeticOptimizer:AddOpsRewriteStage":{"b":true}},"name":"ArithmeticOptimizer/AddOpsRewrite_eltwise_stage2_block1","op":"Add"},{"input":["ArithmeticOptimizer/AddOpsRewrite_eltwise_stage2_block1"],"attr":{"T":{"type":1}},"name":"relu_stage2_block1","op":"Relu"},{"input":["relu_stage2_block1","conv_stage2_block2_branch2a/weights"],"attr":{"dilations":{"list":{"s":[],"i":["1","1","1","1"],"f":[],"b":[],"type":[],"shape":[],"tensor":[],"func":[]}},"T":{"type":1},"strides":{"list":{"s":[],"i":["1","1","1","1"],"f":[],"b":[],"type":[],"shape":[],"tensor":[],"func":[]}},"data_format":{"s":[78,72,87,67]},"use_cudnn_on_gpu":{"b":true},"padding":{"s":[83,65,77,69]}},"name":"conv_stage2_block2_branch2a/Conv2D","op":"Conv2D"},{"input":["conv_stage2_block2_branch2a/Conv2D","conv_stage2_block2_branch2a/biases"],"attr":{"T":{"type":1},"data_format":{"s":[78,72,87,67]}},"name":"conv_stage2_block2_branch2a/BiasAdd","op":"BiasAdd"},{"input":["conv_stage2_block2_branch2a/BiasAdd","bn_stage2_block2_branch2a/bn_stage2_block2_branch2a/mul"],"attr":{"T":{"type":1}},"name":"bn_stage2_block2_branch2a/bn_stage2_block2_branch2a/mul_1","op":"Mul"},{"input":["bn_stage2_block2_branch2a/bn_stage2_block2_branch2a/mul_1","bn_stage2_block2_branch2a/bn_stage2_block2_branch2a/sub"],"attr":{"T":{"type":1}},"name":"bn_stage2_block2_branch2a/bn_stage2_block2_branch2a/add_1","op":"Add"},{"input":["bn_stage2_block2_branch2a/bn_stage2_block2_branch2a/add_1"],"attr":{"T":{"type":1}},"name":"bn_stage2_block2_branch2a/Relu","op":"Relu"},{"input":["bn_stage2_block2_branch2a/Relu","conv_stage2_block2_branch2b/weights"],"attr":{"use_cudnn_on_gpu":{"b":true},"padding":{"s":[83,65,77,69]},"dilations":{"list":{"s":[],"i":["1","1","1","1"],"f":[],"b":[],"type":[],"shape":[],"tensor":[],"func":[]}},"T":{"type":1},"data_format":{"s":[78,72,87,67]},"strides":{"list":{"s":[],"i":["1","1","1","1"],"f":[],"b":[],"type":[],"shape":[],"tensor":[],"func":[]}}},"name":"conv_stage2_block2_branch2b/Conv2D","op":"Conv2D"},{"input":["conv_stage2_block2_branch2b/Conv2D","conv_stage2_block2_branch2b/biases"],"attr":{"T":{"type":1},"data_format":{"s":[78,72,87,67]}},"name":"conv_stage2_block2_branch2b/BiasAdd","op":"BiasAdd"},{"input":["conv_stage2_block2_branch2b/BiasAdd","bn_stage2_block2_branch2b/bn_stage2_block2_branch2b/mul"],"attr":{"T":{"type":1}},"name":"bn_stage2_block2_branch2b/bn_stage2_block2_branch2b/mul_1","op":"Mul"},{"input":["bn_stage2_block2_branch2b/bn_stage2_block2_branch2b/mul_1","bn_stage2_block2_branch2b/bn_stage2_block2_branch2b/sub"],"attr":{"T":{"type":1}},"name":"bn_stage2_block2_branch2b/bn_stage2_block2_branch2b/add_1","op":"Add"},{"input":["bn_stage2_block2_branch2b/bn_stage2_block2_branch2b/add_1"],"attr":{"T":{"type":1}},"name":"bn_stage2_block2_branch2b/Relu","op":"Relu"},{"input":["bn_stage2_block2_branch2b/Relu","conv_stage2_block2_branch2c/weights"],"attr":{"dilations":{"list":{"s":[],"i":["1","1","1","1"],"f":[],"b":[],"type":[],"shape":[],"tensor":[],"func":[]}},"T":{"type":1},"data_format":{"s":[78,72,87,67]},"strides":{"list":{"s":[],"i":["1","1","1","1"],"f":[],"b":[],"type":[],"shape":[],"tensor":[],"func":[]}},"use_cudnn_on_gpu":{"b":true},"padding":{"s":[83,65,77,69]}},"name":"conv_stage2_block2_branch2c/Conv2D","op":"Conv2D"},{"input":["conv_stage2_block2_branch2c/Conv2D","conv_stage2_block2_branch2c/biases"],"attr":{"data_format":{"s":[78,72,87,67]},"T":{"type":1}},"name":"conv_stage2_block2_branch2c/BiasAdd","op":"BiasAdd"},{"input":["conv_stage2_block2_branch2c/BiasAdd","bn_stage2_block2_branch2c/bn_stage2_block2_branch2c/mul"],"attr":{"T":{"type":1}},"name":"bn_stage2_block2_branch2c/bn_stage2_block2_branch2c/mul_1","op":"Mul"},{"input":["relu_stage2_block1","bn_stage2_block2_branch2c/bn_stage2_block2_branch2c/mul_1"],"attr":{"T":{"type":1},"_grappler:ArithmeticOptimizer:AddOpsRewriteStage":{"b":true},"N":{"i":"2"}},"name":"ArithmeticOptimizer/AddOpsRewrite_Leaf_1_eltwise_stage2_block2","op":"AddN"},{"input":["bn_stage2_block2_branch2c/bn_stage2_block2_branch2c/sub","ArithmeticOptimizer/AddOpsRewrite_Leaf_1_eltwise_stage2_block2"],"attr":{"T":{"type":1},"_grappler:ArithmeticOptimizer:AddOpsRewriteStage":{"b":true}},"name":"ArithmeticOptimizer/AddOpsRewrite_eltwise_stage2_block2","op":"Add"},{"input":["ArithmeticOptimizer/AddOpsRewrite_eltwise_stage2_block2"],"attr":{"T":{"type":1}},"name":"relu_stage2_block2","op":"Relu"},{"input":["relu_stage2_block2","conv_stage2_block3_branch2a/weights"],"attr":{"padding":{"s":[83,65,77,69]},"dilations":{"list":{"s":[],"i":["1","1","1","1"],"f":[],"b":[],"type":[],"shape":[],"tensor":[],"func":[]}},"T":{"type":1},"data_format":{"s":[78,72,87,67]},"strides":{"list":{"s":[],"i":["1","1","1","1"],"f":[],"b":[],"type":[],"shape":[],"tensor":[],"func":[]}},"use_cudnn_on_gpu":{"b":true}},"name":"conv_stage2_block3_branch2a/Conv2D","op":"Conv2D"},{"input":["conv_stage2_block3_branch2a/Conv2D","conv_stage2_block3_branch2a/biases"],"attr":{"T":{"type":1},"data_format":{"s":[78,72,87,67]}},"name":"conv_stage2_block3_branch2a/BiasAdd","op":"BiasAdd"},{"input":["conv_stage2_block3_branch2a/BiasAdd","bn_stage2_block3_branch2a/bn_stage2_block3_branch2a/mul"],"attr":{"T":{"type":1}},"name":"bn_stage2_block3_branch2a/bn_stage2_block3_branch2a/mul_1","op":"Mul"},{"input":["bn_stage2_block3_branch2a/bn_stage2_block3_branch2a/mul_1","bn_stage2_block3_branch2a/bn_stage2_block3_branch2a/sub"],"attr":{"T":{"type":1}},"name":"bn_stage2_block3_branch2a/bn_stage2_block3_branch2a/add_1","op":"Add"},{"input":["bn_stage2_block3_branch2a/bn_stage2_block3_branch2a/add_1"],"attr":{"T":{"type":1}},"name":"bn_stage2_block3_branch2a/Relu","op":"Relu"},{"input":["bn_stage2_block3_branch2a/Relu","conv_stage2_block3_branch2b/weights"],"attr":{"dilations":{"list":{"s":[],"i":["1","1","1","1"],"f":[],"b":[],"type":[],"shape":[],"tensor":[],"func":[]}},"T":{"type":1},"data_format":{"s":[78,72,87,67]},"strides":{"list":{"s":[],"i":["1","1","1","1"],"f":[],"b":[],"type":[],"shape":[],"tensor":[],"func":[]}},"use_cudnn_on_gpu":{"b":true},"padding":{"s":[83,65,77,69]}},"name":"conv_stage2_block3_branch2b/Conv2D","op":"Conv2D"},{"input":["conv_stage2_block3_branch2b/Conv2D","conv_stage2_block3_branch2b/biases"],"attr":{"data_format":{"s":[78,72,87,67]},"T":{"type":1}},"name":"conv_stage2_block3_branch2b/BiasAdd","op":"BiasAdd"},{"input":["conv_stage2_block3_branch2b/BiasAdd","bn_stage2_block3_branch2b/bn_stage2_block3_branch2b/mul"],"attr":{"T":{"type":1}},"name":"bn_stage2_block3_branch2b/bn_stage2_block3_branch2b/mul_1","op":"Mul"},{"input":["bn_stage2_block3_branch2b/bn_stage2_block3_branch2b/mul_1","bn_stage2_block3_branch2b/bn_stage2_block3_branch2b/sub"],"attr":{"T":{"type":1}},"name":"bn_stage2_block3_branch2b/bn_stage2_block3_branch2b/add_1","op":"Add"},{"input":["bn_stage2_block3_branch2b/bn_stage2_block3_branch2b/add_1"],"attr":{"T":{"type":1}},"name":"bn_stage2_block3_branch2b/Relu","op":"Relu"},{"input":["bn_stage2_block3_branch2b/Relu","conv_stage2_block3_branch2c/weights"],"attr":{"dilations":{"list":{"s":[],"i":["1","1","1","1"],"f":[],"b":[],"type":[],"shape":[],"tensor":[],"func":[]}},"T":{"type":1},"strides":{"list":{"s":[],"i":["1","1","1","1"],"f":[],"b":[],"type":[],"shape":[],"tensor":[],"func":[]}},"data_format":{"s":[78,72,87,67]},"use_cudnn_on_gpu":{"b":true},"padding":{"s":[83,65,77,69]}},"name":"conv_stage2_block3_branch2c/Conv2D","op":"Conv2D"},{"input":["conv_stage2_block3_branch2c/Conv2D","conv_stage2_block3_branch2c/biases"],"attr":{"T":{"type":1},"data_format":{"s":[78,72,87,67]}},"name":"conv_stage2_block3_branch2c/BiasAdd","op":"BiasAdd"},{"input":["conv_stage2_block3_branch2c/BiasAdd","bn_stage2_block3_branch2c/bn_stage2_block3_branch2c/mul"],"attr":{"T":{"type":1}},"name":"bn_stage2_block3_branch2c/bn_stage2_block3_branch2c/mul_1","op":"Mul"},{"input":["relu_stage2_block2","bn_stage2_block3_branch2c/bn_stage2_block3_branch2c/mul_1"],"attr":{"T":{"type":1},"_grappler:ArithmeticOptimizer:AddOpsRewriteStage":{"b":true},"N":{"i":"2"}},"name":"ArithmeticOptimizer/AddOpsRewrite_Leaf_1_eltwise_stage2_block3","op":"AddN"},{"input":["bn_stage2_block3_branch2c/bn_stage2_block3_branch2c/sub","ArithmeticOptimizer/AddOpsRewrite_Leaf_1_eltwise_stage2_block3"],"attr":{"_grappler:ArithmeticOptimizer:AddOpsRewriteStage":{"b":true},"T":{"type":1}},"name":"ArithmeticOptimizer/AddOpsRewrite_eltwise_stage2_block3","op":"Add"},{"input":["ArithmeticOptimizer/AddOpsRewrite_eltwise_stage2_block3"],"attr":{"T":{"type":1}},"name":"relu_stage2_block3","op":"Relu"},{"input":["relu_stage2_block3","conv_stage2_block4_branch2a/weights"],"attr":{"dilations":{"list":{"s":[],"i":["1","1","1","1"],"f":[],"b":[],"type":[],"shape":[],"tensor":[],"func":[]}},"T":{"type":1},"strides":{"list":{"s":[],"i":["1","1","1","1"],"f":[],"b":[],"type":[],"shape":[],"tensor":[],"func":[]}},"data_format":{"s":[78,72,87,67]},"use_cudnn_on_gpu":{"b":true},"padding":{"s":[83,65,77,69]}},"name":"conv_stage2_block4_branch2a/Conv2D","op":"Conv2D"},{"input":["conv_stage2_block4_branch2a/Conv2D","conv_stage2_block4_branch2a/biases"],"attr":{"T":{"type":1},"data_format":{"s":[78,72,87,67]}},"name":"conv_stage2_block4_branch2a/BiasAdd","op":"BiasAdd"},{"input":["conv_stage2_block4_branch2a/BiasAdd","bn_stage2_block4_branch2a/bn_stage2_block4_branch2a/mul"],"attr":{"T":{"type":1}},"name":"bn_stage2_block4_branch2a/bn_stage2_block4_branch2a/mul_1","op":"Mul"},{"input":["bn_stage2_block4_branch2a/bn_stage2_block4_branch2a/mul_1","bn_stage2_block4_branch2a/bn_stage2_block4_branch2a/sub"],"attr":{"T":{"type":1}},"name":"bn_stage2_block4_branch2a/bn_stage2_block4_branch2a/add_1","op":"Add"},{"input":["bn_stage2_block4_branch2a/bn_stage2_block4_branch2a/add_1"],"attr":{"T":{"type":1}},"name":"bn_stage2_block4_branch2a/Relu","op":"Relu"},{"input":["bn_stage2_block4_branch2a/Relu","conv_stage2_block4_branch2b/weights"],"attr":{"dilations":{"list":{"s":[],"i":["1","1","1","1"],"f":[],"b":[],"type":[],"shape":[],"tensor":[],"func":[]}},"T":{"type":1},"strides":{"list":{"s":[],"i":["1","1","1","1"],"f":[],"b":[],"type":[],"shape":[],"tensor":[],"func":[]}},"data_format":{"s":[78,72,87,67]},"use_cudnn_on_gpu":{"b":true},"padding":{"s":[83,65,77,69]}},"name":"conv_stage2_block4_branch2b/Conv2D","op":"Conv2D"},{"input":["conv_stage2_block4_branch2b/Conv2D","conv_stage2_block4_branch2b/biases"],"attr":{"T":{"type":1},"data_format":{"s":[78,72,87,67]}},"name":"conv_stage2_block4_branch2b/BiasAdd","op":"BiasAdd"},{"input":["conv_stage2_block4_branch2b/BiasAdd","bn_stage2_block4_branch2b/bn_stage2_block4_branch2b/mul"],"attr":{"T":{"type":1}},"name":"bn_stage2_block4_branch2b/bn_stage2_block4_branch2b/mul_1","op":"Mul"},{"input":["bn_stage2_block4_branch2b/bn_stage2_block4_branch2b/mul_1","bn_stage2_block4_branch2b/bn_stage2_block4_branch2b/sub"],"attr":{"T":{"type":1}},"name":"bn_stage2_block4_branch2b/bn_stage2_block4_branch2b/add_1","op":"Add"},{"input":["bn_stage2_block4_branch2b/bn_stage2_block4_branch2b/add_1"],"attr":{"T":{"type":1}},"name":"bn_stage2_block4_branch2b/Relu","op":"Relu"},{"input":["bn_stage2_block4_branch2b/Relu","conv_stage2_block4_branch2c/weights"],"attr":{"padding":{"s":[83,65,77,69]},"dilations":{"list":{"s":[],"i":["1","1","1","1"],"f":[],"b":[],"type":[],"shape":[],"tensor":[],"func":[]}},"T":{"type":1},"data_format":{"s":[78,72,87,67]},"strides":{"list":{"s":[],"i":["1","1","1","1"],"f":[],"b":[],"type":[],"shape":[],"tensor":[],"func":[]}},"use_cudnn_on_gpu":{"b":true}},"name":"conv_stage2_block4_branch2c/Conv2D","op":"Conv2D"},{"input":["conv_stage2_block4_branch2c/Conv2D","conv_stage2_block4_branch2c/biases"],"attr":{"T":{"type":1},"data_format":{"s":[78,72,87,67]}},"name":"conv_stage2_block4_branch2c/BiasAdd","op":"BiasAdd"},{"input":["conv_stage2_block4_branch2c/BiasAdd","bn_stage2_block4_branch2c/bn_stage2_block4_branch2c/mul"],"attr":{"T":{"type":1}},"name":"bn_stage2_block4_branch2c/bn_stage2_block4_branch2c/mul_1","op":"Mul"},{"input":["relu_stage2_block3","bn_stage2_block4_branch2c/bn_stage2_block4_branch2c/mul_1"],"attr":{"_grappler:ArithmeticOptimizer:AddOpsRewriteStage":{"b":true},"N":{"i":"2"},"T":{"type":1}},"name":"ArithmeticOptimizer/AddOpsRewrite_Leaf_1_eltwise_stage2_block4","op":"AddN"},{"input":["bn_stage2_block4_branch2c/bn_stage2_block4_branch2c/sub","ArithmeticOptimizer/AddOpsRewrite_Leaf_1_eltwise_stage2_block4"],"attr":{"T":{"type":1},"_grappler:ArithmeticOptimizer:AddOpsRewriteStage":{"b":true}},"name":"ArithmeticOptimizer/AddOpsRewrite_eltwise_stage2_block4","op":"Add"},{"input":["ArithmeticOptimizer/AddOpsRewrite_eltwise_stage2_block4"],"attr":{"T":{"type":1}},"name":"relu_stage2_block4","op":"Relu"},{"input":["relu_stage2_block4","conv_stage2_block5_branch2a/weights"],"attr":{"T":{"type":1},"data_format":{"s":[78,72,87,67]},"strides":{"list":{"s":[],"i":["1","1","1","1"],"f":[],"b":[],"type":[],"shape":[],"tensor":[],"func":[]}},"use_cudnn_on_gpu":{"b":true},"padding":{"s":[83,65,77,69]},"dilations":{"list":{"s":[],"i":["1","1","1","1"],"f":[],"b":[],"type":[],"shape":[],"tensor":[],"func":[]}}},"name":"conv_stage2_block5_branch2a/Conv2D","op":"Conv2D"},{"input":["conv_stage2_block5_branch2a/Conv2D","conv_stage2_block5_branch2a/biases"],"attr":{"data_format":{"s":[78,72,87,67]},"T":{"type":1}},"name":"conv_stage2_block5_branch2a/BiasAdd","op":"BiasAdd"},{"input":["conv_stage2_block5_branch2a/BiasAdd","bn_stage2_block5_branch2a/bn_stage2_block5_branch2a/mul"],"attr":{"T":{"type":1}},"name":"bn_stage2_block5_branch2a/bn_stage2_block5_branch2a/mul_1","op":"Mul"},{"input":["bn_stage2_block5_branch2a/bn_stage2_block5_branch2a/mul_1","bn_stage2_block5_branch2a/bn_stage2_block5_branch2a/sub"],"attr":{"T":{"type":1}},"name":"bn_stage2_block5_branch2a/bn_stage2_block5_branch2a/add_1","op":"Add"},{"input":["bn_stage2_block5_branch2a/bn_stage2_block5_branch2a/add_1"],"attr":{"T":{"type":1}},"name":"bn_stage2_block5_branch2a/Relu","op":"Relu"},{"input":["bn_stage2_block5_branch2a/Relu","conv_stage2_block5_branch2b/weights"],"attr":{"dilations":{"list":{"s":[],"i":["1","1","1","1"],"f":[],"b":[],"type":[],"shape":[],"tensor":[],"func":[]}},"T":{"type":1},"strides":{"list":{"s":[],"i":["1","1","1","1"],"f":[],"b":[],"type":[],"shape":[],"tensor":[],"func":[]}},"data_format":{"s":[78,72,87,67]},"use_cudnn_on_gpu":{"b":true},"padding":{"s":[83,65,77,69]}},"name":"conv_stage2_block5_branch2b/Conv2D","op":"Conv2D"},{"input":["conv_stage2_block5_branch2b/Conv2D","conv_stage2_block5_branch2b/biases"],"attr":{"T":{"type":1},"data_format":{"s":[78,72,87,67]}},"name":"conv_stage2_block5_branch2b/BiasAdd","op":"BiasAdd"},{"input":["conv_stage2_block5_branch2b/BiasAdd","bn_stage2_block5_branch2b/bn_stage2_block5_branch2b/mul"],"attr":{"T":{"type":1}},"name":"bn_stage2_block5_branch2b/bn_stage2_block5_branch2b/mul_1","op":"Mul"},{"input":["bn_stage2_block5_branch2b/bn_stage2_block5_branch2b/mul_1","bn_stage2_block5_branch2b/bn_stage2_block5_branch2b/sub"],"attr":{"T":{"type":1}},"name":"bn_stage2_block5_branch2b/bn_stage2_block5_branch2b/add_1","op":"Add"},{"input":["bn_stage2_block5_branch2b/bn_stage2_block5_branch2b/add_1"],"attr":{"T":{"type":1}},"name":"bn_stage2_block5_branch2b/Relu","op":"Relu"},{"input":["bn_stage2_block5_branch2b/Relu","conv_stage2_block5_branch2c/weights"],"attr":{"strides":{"list":{"s":[],"i":["1","1","1","1"],"f":[],"b":[],"type":[],"shape":[],"tensor":[],"func":[]}},"data_format":{"s":[78,72,87,67]},"use_cudnn_on_gpu":{"b":true},"padding":{"s":[83,65,77,69]},"dilations":{"list":{"s":[],"i":["1","1","1","1"],"f":[],"b":[],"type":[],"shape":[],"tensor":[],"func":[]}},"T":{"type":1}},"name":"conv_stage2_block5_branch2c/Conv2D","op":"Conv2D"},{"input":["conv_stage2_block5_branch2c/Conv2D","conv_stage2_block5_branch2c/biases"],"attr":{"T":{"type":1},"data_format":{"s":[78,72,87,67]}},"name":"conv_stage2_block5_branch2c/BiasAdd","op":"BiasAdd"},{"input":["conv_stage2_block5_branch2c/BiasAdd","bn_stage2_block5_branch2c/bn_stage2_block5_branch2c/mul"],"attr":{"T":{"type":1}},"name":"bn_stage2_block5_branch2c/bn_stage2_block5_branch2c/mul_1","op":"Mul"},{"input":["relu_stage2_block4","bn_stage2_block5_branch2c/bn_stage2_block5_branch2c/mul_1"],"attr":{"_grappler:ArithmeticOptimizer:AddOpsRewriteStage":{"b":true},"N":{"i":"2"},"T":{"type":1}},"name":"ArithmeticOptimizer/AddOpsRewrite_Leaf_1_eltwise_stage2_block5","op":"AddN"},{"input":["bn_stage2_block5_branch2c/bn_stage2_block5_branch2c/sub","ArithmeticOptimizer/AddOpsRewrite_Leaf_1_eltwise_stage2_block5"],"attr":{"T":{"type":1},"_grappler:ArithmeticOptimizer:AddOpsRewriteStage":{"b":true}},"name":"ArithmeticOptimizer/AddOpsRewrite_eltwise_stage2_block5","op":"Add"},{"input":["ArithmeticOptimizer/AddOpsRewrite_eltwise_stage2_block5"],"attr":{"T":{"type":1}},"name":"relu_stage2_block5","op":"Relu"},{"input":["relu_stage2_block5","conv_stage3_block0_proj_shortcut/weights"],"attr":{"dilations":{"list":{"s":[],"i":["1","1","1","1"],"f":[],"b":[],"type":[],"shape":[],"tensor":[],"func":[]}},"T":{"type":1},"data_format":{"s":[78,72,87,67]},"strides":{"list":{"s":[],"i":["1","2","2","1"],"f":[],"b":[],"type":[],"shape":[],"tensor":[],"func":[]}},"use_cudnn_on_gpu":{"b":true},"padding":{"s":[83,65,77,69]}},"name":"conv_stage3_block0_proj_shortcut/Conv2D","op":"Conv2D"},{"input":["relu_stage2_block5","conv_stage3_block0_branch2a/weights"],"attr":{"dilations":{"list":{"s":[],"i":["1","1","1","1"],"f":[],"b":[],"type":[],"shape":[],"tensor":[],"func":[]}},"T":{"type":1},"strides":{"list":{"s":[],"i":["1","2","2","1"],"f":[],"b":[],"type":[],"shape":[],"tensor":[],"func":[]}},"data_format":{"s":[78,72,87,67]},"use_cudnn_on_gpu":{"b":true},"padding":{"s":[83,65,77,69]}},"name":"conv_stage3_block0_branch2a/Conv2D","op":"Conv2D"},{"input":["conv_stage3_block0_proj_shortcut/Conv2D","conv_stage3_block0_proj_shortcut/biases"],"attr":{"data_format":{"s":[78,72,87,67]},"T":{"type":1}},"name":"conv_stage3_block0_proj_shortcut/BiasAdd","op":"BiasAdd"},{"input":["conv_stage3_block0_branch2a/Conv2D","conv_stage3_block0_branch2a/biases"],"attr":{"data_format":{"s":[78,72,87,67]},"T":{"type":1}},"name":"conv_stage3_block0_branch2a/BiasAdd","op":"BiasAdd"},{"input":["conv_stage3_block0_proj_shortcut/BiasAdd","bn_stage3_block0_proj_shortcut/bn_stage3_block0_proj_shortcut/mul"],"attr":{"T":{"type":1}},"name":"bn_stage3_block0_proj_shortcut/bn_stage3_block0_proj_shortcut/mul_1","op":"Mul"},{"input":["conv_stage3_block0_branch2a/BiasAdd","bn_stage3_block0_branch2a/bn_stage3_block0_branch2a/mul"],"attr":{"T":{"type":1}},"name":"bn_stage3_block0_branch2a/bn_stage3_block0_branch2a/mul_1","op":"Mul"},{"input":["bn_stage3_block0_branch2a/bn_stage3_block0_branch2a/mul_1","bn_stage3_block0_branch2a/bn_stage3_block0_branch2a/sub"],"attr":{"T":{"type":1}},"name":"bn_stage3_block0_branch2a/bn_stage3_block0_branch2a/add_1","op":"Add"},{"input":["bn_stage3_block0_branch2a/bn_stage3_block0_branch2a/add_1"],"attr":{"T":{"type":1}},"name":"bn_stage3_block0_branch2a/Relu","op":"Relu"},{"input":["bn_stage3_block0_branch2a/Relu","conv_stage3_block0_branch2b/weights"],"attr":{"T":{"type":1},"data_format":{"s":[78,72,87,67]},"strides":{"list":{"s":[],"i":["1","1","1","1"],"f":[],"b":[],"type":[],"shape":[],"tensor":[],"func":[]}},"use_cudnn_on_gpu":{"b":true},"padding":{"s":[83,65,77,69]},"dilations":{"list":{"s":[],"i":["1","1","1","1"],"f":[],"b":[],"type":[],"shape":[],"tensor":[],"func":[]}}},"name":"conv_stage3_block0_branch2b/Conv2D","op":"Conv2D"},{"input":["conv_stage3_block0_branch2b/Conv2D","conv_stage3_block0_branch2b/biases"],"attr":{"T":{"type":1},"data_format":{"s":[78,72,87,67]}},"name":"conv_stage3_block0_branch2b/BiasAdd","op":"BiasAdd"},{"input":["conv_stage3_block0_branch2b/BiasAdd","bn_stage3_block0_branch2b/bn_stage3_block0_branch2b/mul"],"attr":{"T":{"type":1}},"name":"bn_stage3_block0_branch2b/bn_stage3_block0_branch2b/mul_1","op":"Mul"},{"input":["bn_stage3_block0_branch2b/bn_stage3_block0_branch2b/mul_1","bn_stage3_block0_branch2b/bn_stage3_block0_branch2b/sub"],"attr":{"T":{"type":1}},"name":"bn_stage3_block0_branch2b/bn_stage3_block0_branch2b/add_1","op":"Add"},{"input":["bn_stage3_block0_branch2b/bn_stage3_block0_branch2b/add_1"],"attr":{"T":{"type":1}},"name":"bn_stage3_block0_branch2b/Relu","op":"Relu"},{"input":["bn_stage3_block0_branch2b/Relu","conv_stage3_block0_branch2c/weights"],"attr":{"padding":{"s":[83,65,77,69]},"dilations":{"list":{"s":[],"i":["1","1","1","1"],"f":[],"b":[],"type":[],"shape":[],"tensor":[],"func":[]}},"T":{"type":1},"data_format":{"s":[78,72,87,67]},"strides":{"list":{"s":[],"i":["1","1","1","1"],"f":[],"b":[],"type":[],"shape":[],"tensor":[],"func":[]}},"use_cudnn_on_gpu":{"b":true}},"name":"conv_stage3_block0_branch2c/Conv2D","op":"Conv2D"},{"input":["conv_stage3_block0_branch2c/Conv2D","conv_stage3_block0_branch2c/biases"],"attr":{"data_format":{"s":[78,72,87,67]},"T":{"type":1}},"name":"conv_stage3_block0_branch2c/BiasAdd","op":"BiasAdd"},{"input":["conv_stage3_block0_branch2c/BiasAdd","bn_stage3_block0_branch2c/bn_stage3_block0_branch2c/mul"],"attr":{"T":{"type":1}},"name":"bn_stage3_block0_branch2c/bn_stage3_block0_branch2c/mul_1","op":"Mul"},{"input":["bn_stage3_block0_proj_shortcut/bn_stage3_block0_proj_shortcut/mul_1","bn_stage3_block0_branch2c/bn_stage3_block0_branch2c/mul_1"],"attr":{"T":{"type":1},"_grappler:ArithmeticOptimizer:AddOpsRewriteStage":{"b":true},"N":{"i":"2"}},"name":"ArithmeticOptimizer/AddOpsRewrite_Leaf_1_eltwise_stage3_block0","op":"AddN"},{"input":["ArithmeticOptimizer/AddOpsRewrite_Leaf_0_eltwise_stage3_block0","ArithmeticOptimizer/AddOpsRewrite_Leaf_1_eltwise_stage3_block0"],"attr":{"T":{"type":1},"_grappler:ArithmeticOptimizer:AddOpsRewriteStage":{"b":true}},"name":"ArithmeticOptimizer/AddOpsRewrite_eltwise_stage3_block0","op":"Add"},{"input":["ArithmeticOptimizer/AddOpsRewrite_eltwise_stage3_block0"],"attr":{"T":{"type":1}},"name":"relu_stage3_block0","op":"Relu"},{"input":["relu_stage3_block0","conv_stage3_block1_branch2a/weights"],"attr":{"dilations":{"list":{"s":[],"i":["1","1","1","1"],"f":[],"b":[],"type":[],"shape":[],"tensor":[],"func":[]}},"T":{"type":1},"strides":{"list":{"s":[],"i":["1","1","1","1"],"f":[],"b":[],"type":[],"shape":[],"tensor":[],"func":[]}},"data_format":{"s":[78,72,87,67]},"use_cudnn_on_gpu":{"b":true},"padding":{"s":[83,65,77,69]}},"name":"conv_stage3_block1_branch2a/Conv2D","op":"Conv2D"},{"input":["conv_stage3_block1_branch2a/Conv2D","conv_stage3_block1_branch2a/biases"],"attr":{"data_format":{"s":[78,72,87,67]},"T":{"type":1}},"name":"conv_stage3_block1_branch2a/BiasAdd","op":"BiasAdd"},{"input":["conv_stage3_block1_branch2a/BiasAdd","bn_stage3_block1_branch2a/bn_stage3_block1_branch2a/mul"],"attr":{"T":{"type":1}},"name":"bn_stage3_block1_branch2a/bn_stage3_block1_branch2a/mul_1","op":"Mul"},{"input":["bn_stage3_block1_branch2a/bn_stage3_block1_branch2a/mul_1","bn_stage3_block1_branch2a/bn_stage3_block1_branch2a/sub"],"attr":{"T":{"type":1}},"name":"bn_stage3_block1_branch2a/bn_stage3_block1_branch2a/add_1","op":"Add"},{"input":["bn_stage3_block1_branch2a/bn_stage3_block1_branch2a/add_1"],"attr":{"T":{"type":1}},"name":"bn_stage3_block1_branch2a/Relu","op":"Relu"},{"input":["bn_stage3_block1_branch2a/Relu","conv_stage3_block1_branch2b/weights"],"attr":{"T":{"type":1},"strides":{"list":{"s":[],"i":["1","1","1","1"],"f":[],"b":[],"type":[],"shape":[],"tensor":[],"func":[]}},"data_format":{"s":[78,72,87,67]},"use_cudnn_on_gpu":{"b":true},"padding":{"s":[83,65,77,69]},"dilations":{"list":{"s":[],"i":["1","1","1","1"],"f":[],"b":[],"type":[],"shape":[],"tensor":[],"func":[]}}},"name":"conv_stage3_block1_branch2b/Conv2D","op":"Conv2D"},{"input":["conv_stage3_block1_branch2b/Conv2D","conv_stage3_block1_branch2b/biases"],"attr":{"T":{"type":1},"data_format":{"s":[78,72,87,67]}},"name":"conv_stage3_block1_branch2b/BiasAdd","op":"BiasAdd"},{"input":["conv_stage3_block1_branch2b/BiasAdd","bn_stage3_block1_branch2b/bn_stage3_block1_branch2b/mul"],"attr":{"T":{"type":1}},"name":"bn_stage3_block1_branch2b/bn_stage3_block1_branch2b/mul_1","op":"Mul"},{"input":["bn_stage3_block1_branch2b/bn_stage3_block1_branch2b/mul_1","bn_stage3_block1_branch2b/bn_stage3_block1_branch2b/sub"],"attr":{"T":{"type":1}},"name":"bn_stage3_block1_branch2b/bn_stage3_block1_branch2b/add_1","op":"Add"},{"input":["bn_stage3_block1_branch2b/bn_stage3_block1_branch2b/add_1"],"attr":{"T":{"type":1}},"name":"bn_stage3_block1_branch2b/Relu","op":"Relu"},{"input":["bn_stage3_block1_branch2b/Relu","conv_stage3_block1_branch2c/weights"],"attr":{"dilations":{"list":{"s":[],"i":["1","1","1","1"],"f":[],"b":[],"type":[],"shape":[],"tensor":[],"func":[]}},"T":{"type":1},"strides":{"list":{"s":[],"i":["1","1","1","1"],"f":[],"b":[],"type":[],"shape":[],"tensor":[],"func":[]}},"data_format":{"s":[78,72,87,67]},"use_cudnn_on_gpu":{"b":true},"padding":{"s":[83,65,77,69]}},"name":"conv_stage3_block1_branch2c/Conv2D","op":"Conv2D"},{"input":["conv_stage3_block1_branch2c/Conv2D","conv_stage3_block1_branch2c/biases"],"attr":{"T":{"type":1},"data_format":{"s":[78,72,87,67]}},"name":"conv_stage3_block1_branch2c/BiasAdd","op":"BiasAdd"},{"input":["conv_stage3_block1_branch2c/BiasAdd","bn_stage3_block1_branch2c/bn_stage3_block1_branch2c/mul"],"attr":{"T":{"type":1}},"name":"bn_stage3_block1_branch2c/bn_stage3_block1_branch2c/mul_1","op":"Mul"},{"input":["relu_stage3_block0","bn_stage3_block1_branch2c/bn_stage3_block1_branch2c/mul_1"],"attr":{"T":{"type":1},"_grappler:ArithmeticOptimizer:AddOpsRewriteStage":{"b":true},"N":{"i":"2"}},"name":"ArithmeticOptimizer/AddOpsRewrite_Leaf_1_eltwise_stage3_block1","op":"AddN"},{"input":["bn_stage3_block1_branch2c/bn_stage3_block1_branch2c/sub","ArithmeticOptimizer/AddOpsRewrite_Leaf_1_eltwise_stage3_block1"],"attr":{"T":{"type":1},"_grappler:ArithmeticOptimizer:AddOpsRewriteStage":{"b":true}},"name":"ArithmeticOptimizer/AddOpsRewrite_eltwise_stage3_block1","op":"Add"},{"input":["ArithmeticOptimizer/AddOpsRewrite_eltwise_stage3_block1"],"attr":{"T":{"type":1}},"name":"relu_stage3_block1","op":"Relu"},{"input":["relu_stage3_block1","conv_stage3_block2_branch2a/weights"],"attr":{"padding":{"s":[83,65,77,69]},"dilations":{"list":{"s":[],"i":["1","1","1","1"],"f":[],"b":[],"type":[],"shape":[],"tensor":[],"func":[]}},"T":{"type":1},"data_format":{"s":[78,72,87,67]},"strides":{"list":{"s":[],"i":["1","1","1","1"],"f":[],"b":[],"type":[],"shape":[],"tensor":[],"func":[]}},"use_cudnn_on_gpu":{"b":true}},"name":"conv_stage3_block2_branch2a/Conv2D","op":"Conv2D"},{"input":["conv_stage3_block2_branch2a/Conv2D","conv_stage3_block2_branch2a/biases"],"attr":{"T":{"type":1},"data_format":{"s":[78,72,87,67]}},"name":"conv_stage3_block2_branch2a/BiasAdd","op":"BiasAdd"},{"input":["conv_stage3_block2_branch2a/BiasAdd","bn_stage3_block2_branch2a/bn_stage3_block2_branch2a/mul"],"attr":{"T":{"type":1}},"name":"bn_stage3_block2_branch2a/bn_stage3_block2_branch2a/mul_1","op":"Mul"},{"input":["bn_stage3_block2_branch2a/bn_stage3_block2_branch2a/mul_1","bn_stage3_block2_branch2a/bn_stage3_block2_branch2a/sub"],"attr":{"T":{"type":1}},"name":"bn_stage3_block2_branch2a/bn_stage3_block2_branch2a/add_1","op":"Add"},{"input":["bn_stage3_block2_branch2a/bn_stage3_block2_branch2a/add_1"],"attr":{"T":{"type":1}},"name":"bn_stage3_block2_branch2a/Relu","op":"Relu"},{"input":["bn_stage3_block2_branch2a/Relu","conv_stage3_block2_branch2b/weights"],"attr":{"data_format":{"s":[78,72,87,67]},"strides":{"list":{"s":[],"i":["1","1","1","1"],"f":[],"b":[],"type":[],"shape":[],"tensor":[],"func":[]}},"use_cudnn_on_gpu":{"b":true},"padding":{"s":[83,65,77,69]},"dilations":{"list":{"s":[],"i":["1","1","1","1"],"f":[],"b":[],"type":[],"shape":[],"tensor":[],"func":[]}},"T":{"type":1}},"name":"conv_stage3_block2_branch2b/Conv2D","op":"Conv2D"},{"input":["conv_stage3_block2_branch2b/Conv2D","conv_stage3_block2_branch2b/biases"],"attr":{"T":{"type":1},"data_format":{"s":[78,72,87,67]}},"name":"conv_stage3_block2_branch2b/BiasAdd","op":"BiasAdd"},{"input":["conv_stage3_block2_branch2b/BiasAdd","bn_stage3_block2_branch2b/bn_stage3_block2_branch2b/mul"],"attr":{"T":{"type":1}},"name":"bn_stage3_block2_branch2b/bn_stage3_block2_branch2b/mul_1","op":"Mul"},{"input":["bn_stage3_block2_branch2b/bn_stage3_block2_branch2b/mul_1","bn_stage3_block2_branch2b/bn_stage3_block2_branch2b/sub"],"attr":{"T":{"type":1}},"name":"bn_stage3_block2_branch2b/bn_stage3_block2_branch2b/add_1","op":"Add"},{"input":["bn_stage3_block2_branch2b/bn_stage3_block2_branch2b/add_1"],"attr":{"T":{"type":1}},"name":"bn_stage3_block2_branch2b/Relu","op":"Relu"},{"input":["bn_stage3_block2_branch2b/Relu","conv_stage3_block2_branch2c/weights"],"attr":{"dilations":{"list":{"s":[],"i":["1","1","1","1"],"f":[],"b":[],"type":[],"shape":[],"tensor":[],"func":[]}},"T":{"type":1},"data_format":{"s":[78,72,87,67]},"strides":{"list":{"s":[],"i":["1","1","1","1"],"f":[],"b":[],"type":[],"shape":[],"tensor":[],"func":[]}},"use_cudnn_on_gpu":{"b":true},"padding":{"s":[83,65,77,69]}},"name":"conv_stage3_block2_branch2c/Conv2D","op":"Conv2D"},{"input":["conv_stage3_block2_branch2c/Conv2D","conv_stage3_block2_branch2c/biases"],"attr":{"T":{"type":1},"data_format":{"s":[78,72,87,67]}},"name":"conv_stage3_block2_branch2c/BiasAdd","op":"BiasAdd"},{"input":["conv_stage3_block2_branch2c/BiasAdd","bn_stage3_block2_branch2c/bn_stage3_block2_branch2c/mul"],"attr":{"T":{"type":1}},"name":"bn_stage3_block2_branch2c/bn_stage3_block2_branch2c/mul_1","op":"Mul"},{"input":["relu_stage3_block1","bn_stage3_block2_branch2c/bn_stage3_block2_branch2c/mul_1"],"attr":{"T":{"type":1},"_grappler:ArithmeticOptimizer:AddOpsRewriteStage":{"b":true},"N":{"i":"2"}},"name":"ArithmeticOptimizer/AddOpsRewrite_Leaf_1_eltwise_stage3_block2","op":"AddN"},{"input":["bn_stage3_block2_branch2c/bn_stage3_block2_branch2c/sub","ArithmeticOptimizer/AddOpsRewrite_Leaf_1_eltwise_stage3_block2"],"attr":{"_grappler:ArithmeticOptimizer:AddOpsRewriteStage":{"b":true},"T":{"type":1}},"name":"ArithmeticOptimizer/AddOpsRewrite_eltwise_stage3_block2","op":"Add"},{"input":["ArithmeticOptimizer/AddOpsRewrite_eltwise_stage3_block2"],"attr":{"T":{"type":1}},"name":"relu_stage3_block2","op":"Relu"},{"input":["relu_stage3_block2"],"attr":{"ksize":{"list":{"s":[],"i":["1","7","7","1"],"f":[],"b":[],"type":[],"shape":[],"tensor":[],"func":[]}},"padding":{"s":[86,65,76,73,68]},"T":{"type":1},"strides":{"list":{"s":[],"i":["1","1","1","1"],"f":[],"b":[],"type":[],"shape":[],"tensor":[],"func":[]}},"data_format":{"s":[78,72,87,67]}},"name":"pool","op":"AvgPool"},{"input":["pool","fc_nsfw/Reshape/shape"],"attr":{"T":{"type":1},"Tshape":{"type":3}},"name":"fc_nsfw/Reshape","op":"Reshape"},{"input":["fc_nsfw/Reshape","fc_nsfw/weights"],"attr":{"transpose_a":{"b":false},"transpose_b":{"b":false},"T":{"type":1}},"name":"fc_nsfw/fc_nsfw/MatMul","op":"MatMul"},{"input":["fc_nsfw/fc_nsfw/MatMul","fc_nsfw/biases"],"attr":{"T":{"type":1},"data_format":{"s":[78,72,87,67]}},"name":"fc_nsfw/fc_nsfw","op":"BiasAdd"},{"input":["fc_nsfw/fc_nsfw"],"attr":{"T":{"type":1}},"name":"prob","op":"Softmax"}],"library":{"function":[],"gradient":[]},"versions":{"badConsumers":[]}},"weightsManifest":[{"paths":["group1-shard1of6","group1-shard2of6","group1-shard3of6","group1-shard4of6","group1-shard5of6","group1-shard6of6"],"weights":[{"dtype":"float32","shape":[1024],"name":"bn_stage3_block2_branch2c/bn_stage3_block2_branch2c/sub"},{"dtype":"float32","shape":[1024],"name":"bn_stage3_block1_branch2c/bn_stage3_block1_branch2c/sub"},{"dtype":"float32","shape":[1024],"name":"ArithmeticOptimizer/AddOpsRewrite_Leaf_0_eltwise_stage3_block0"},{"dtype":"float32","shape":[1,1,512,1024],"name":"conv_stage3_block0_proj_shortcut/weights"},{"dtype":"float32","shape":[1024],"name":"conv_stage3_block0_proj_shortcut/biases"},{"dtype":"float32","shape":[1024],"name":"bn_stage3_block0_proj_shortcut/bn_stage3_block0_proj_shortcut/mul"},{"dtype":"float32","shape":[512],"name":"bn_stage2_block5_branch2c/bn_stage2_block5_branch2c/sub"},{"dtype":"float32","shape":[512],"name":"bn_stage2_block4_branch2c/bn_stage2_block4_branch2c/sub"},{"dtype":"float32","shape":[512],"name":"bn_stage2_block3_branch2c/bn_stage2_block3_branch2c/sub"},{"dtype":"float32","shape":[512],"name":"bn_stage2_block2_branch2c/bn_stage2_block2_branch2c/sub"},{"dtype":"float32","shape":[512],"name":"bn_stage2_block1_branch2c/bn_stage2_block1_branch2c/sub"},{"dtype":"float32","shape":[512],"name":"ArithmeticOptimizer/AddOpsRewrite_Leaf_0_eltwise_stage2_block0"},{"dtype":"float32","shape":[1,1,256,512],"name":"conv_stage2_block0_proj_shortcut/weights"},{"dtype":"float32","shape":[512],"name":"conv_stage2_block0_proj_shortcut/biases"},{"dtype":"float32","shape":[512],"name":"bn_stage2_block0_proj_shortcut/bn_stage2_block0_proj_shortcut/mul"},{"dtype":"float32","shape":[256],"name":"bn_stage1_block3_branch2c/bn_stage1_block3_branch2c/sub"},{"dtype":"float32","shape":[256],"name":"bn_stage1_block2_branch2c/bn_stage1_block2_branch2c/sub"},{"dtype":"float32","shape":[256],"name":"bn_stage1_block1_branch2c/bn_stage1_block1_branch2c/sub"},{"dtype":"float32","shape":[256],"name":"ArithmeticOptimizer/AddOpsRewrite_Leaf_0_eltwise_stage1_block0"},{"dtype":"float32","shape":[1,1,128,256],"name":"conv_stage1_block0_proj_shortcut/weights"},{"dtype":"float32","shape":[256],"name":"conv_stage1_block0_proj_shortcut/biases"},{"dtype":"float32","shape":[256],"name":"bn_stage1_block0_proj_shortcut/bn_stage1_block0_proj_shortcut/mul"},{"dtype":"float32","shape":[128],"name":"bn_stage0_block2_branch2c/bn_stage0_block2_branch2c/sub"},{"dtype":"float32","shape":[128],"name":"bn_stage0_block1_branch2c/bn_stage0_block1_branch2c/sub"},{"dtype":"float32","shape":[128],"name":"ArithmeticOptimizer/AddOpsRewrite_Leaf_0_eltwise_stage0_block0"},{"dtype":"float32","shape":[1,1,64,128],"name":"conv_stage0_block0_proj_shortcut/weights"},{"dtype":"float32","shape":[128],"name":"conv_stage0_block0_proj_shortcut/biases"},{"dtype":"float32","shape":[128],"name":"bn_stage0_block0_proj_shortcut/bn_stage0_block0_proj_shortcut/mul"},{"dtype":"float32","shape":[7,7,3,64],"name":"conv_1/weights"},{"dtype":"float32","shape":[64],"name":"conv_1/biases"},{"dtype":"float32","shape":[64],"name":"bn_1/bn_1/mul"},{"dtype":"float32","shape":[64],"name":"bn_1/bn_1/sub"},{"dtype":"float32","shape":[1,1,64,32],"name":"conv_stage0_block0_branch2a/weights"},{"dtype":"float32","shape":[32],"name":"conv_stage0_block0_branch2a/biases"},{"dtype":"float32","shape":[32],"name":"bn_stage0_block0_branch2a/bn_stage0_block0_branch2a/mul"},{"dtype":"float32","shape":[32],"name":"bn_stage0_block0_branch2a/bn_stage0_block0_branch2a/sub"},{"dtype":"float32","shape":[3,3,32,32],"name":"conv_stage0_block0_branch2b/weights"},{"dtype":"float32","shape":[32],"name":"conv_stage0_block0_branch2b/biases"},{"dtype":"float32","shape":[32],"name":"bn_stage0_block0_branch2b/bn_stage0_block0_branch2b/mul"},{"dtype":"float32","shape":[32],"name":"bn_stage0_block0_branch2b/bn_stage0_block0_branch2b/sub"},{"dtype":"float32","shape":[1,1,32,128],"name":"conv_stage0_block0_branch2c/weights"},{"dtype":"float32","shape":[128],"name":"conv_stage0_block0_branch2c/biases"},{"dtype":"float32","shape":[128],"name":"bn_stage0_block0_branch2c/bn_stage0_block0_branch2c/mul"},{"dtype":"float32","shape":[1,1,128,32],"name":"conv_stage0_block1_branch2a/weights"},{"dtype":"float32","shape":[32],"name":"conv_stage0_block1_branch2a/biases"},{"dtype":"float32","shape":[32],"name":"bn_stage0_block1_branch2a/bn_stage0_block1_branch2a/mul"},{"dtype":"float32","shape":[32],"name":"bn_stage0_block1_branch2a/bn_stage0_block1_branch2a/sub"},{"dtype":"float32","shape":[3,3,32,32],"name":"conv_stage0_block1_branch2b/weights"},{"dtype":"float32","shape":[32],"name":"conv_stage0_block1_branch2b/biases"},{"dtype":"float32","shape":[32],"name":"bn_stage0_block1_branch2b/bn_stage0_block1_branch2b/mul"},{"dtype":"float32","shape":[32],"name":"bn_stage0_block1_branch2b/bn_stage0_block1_branch2b/sub"},{"dtype":"float32","shape":[1,1,32,128],"name":"conv_stage0_block1_branch2c/weights"},{"dtype":"float32","shape":[128],"name":"conv_stage0_block1_branch2c/biases"},{"dtype":"float32","shape":[128],"name":"bn_stage0_block1_branch2c/bn_stage0_block1_branch2c/mul"},{"dtype":"float32","shape":[1,1,128,32],"name":"conv_stage0_block2_branch2a/weights"},{"dtype":"float32","shape":[32],"name":"conv_stage0_block2_branch2a/biases"},{"dtype":"float32","shape":[32],"name":"bn_stage0_block2_branch2a/bn_stage0_block2_branch2a/mul"},{"dtype":"float32","shape":[32],"name":"bn_stage0_block2_branch2a/bn_stage0_block2_branch2a/sub"},{"dtype":"float32","shape":[3,3,32,32],"name":"conv_stage0_block2_branch2b/weights"},{"dtype":"float32","shape":[32],"name":"conv_stage0_block2_branch2b/biases"},{"dtype":"float32","shape":[32],"name":"bn_stage0_block2_branch2b/bn_stage0_block2_branch2b/mul"},{"dtype":"float32","shape":[32],"name":"bn_stage0_block2_branch2b/bn_stage0_block2_branch2b/sub"},{"dtype":"float32","shape":[1,1,32,128],"name":"conv_stage0_block2_branch2c/weights"},{"dtype":"float32","shape":[128],"name":"conv_stage0_block2_branch2c/biases"},{"dtype":"float32","shape":[128],"name":"bn_stage0_block2_branch2c/bn_stage0_block2_branch2c/mul"},{"dtype":"float32","shape":[1,1,128,64],"name":"conv_stage1_block0_branch2a/weights"},{"dtype":"float32","shape":[64],"name":"conv_stage1_block0_branch2a/biases"},{"dtype":"float32","shape":[64],"name":"bn_stage1_block0_branch2a/bn_stage1_block0_branch2a/mul"},{"dtype":"float32","shape":[64],"name":"bn_stage1_block0_branch2a/bn_stage1_block0_branch2a/sub"},{"dtype":"float32","shape":[3,3,64,64],"name":"conv_stage1_block0_branch2b/weights"},{"dtype":"float32","shape":[64],"name":"conv_stage1_block0_branch2b/biases"},{"dtype":"float32","shape":[64],"name":"bn_stage1_block0_branch2b/bn_stage1_block0_branch2b/mul"},{"dtype":"float32","shape":[64],"name":"bn_stage1_block0_branch2b/bn_stage1_block0_branch2b/sub"},{"dtype":"float32","shape":[1,1,64,256],"name":"conv_stage1_block0_branch2c/weights"},{"dtype":"float32","shape":[256],"name":"conv_stage1_block0_branch2c/biases"},{"dtype":"float32","shape":[256],"name":"bn_stage1_block0_branch2c/bn_stage1_block0_branch2c/mul"},{"dtype":"float32","shape":[1,1,256,64],"name":"conv_stage1_block1_branch2a/weights"},{"dtype":"float32","shape":[64],"name":"conv_stage1_block1_branch2a/biases"},{"dtype":"float32","shape":[64],"name":"bn_stage1_block1_branch2a/bn_stage1_block1_branch2a/mul"},{"dtype":"float32","shape":[64],"name":"bn_stage1_block1_branch2a/bn_stage1_block1_branch2a/sub"},{"dtype":"float32","shape":[3,3,64,64],"name":"conv_stage1_block1_branch2b/weights"},{"dtype":"float32","shape":[64],"name":"conv_stage1_block1_branch2b/biases"},{"dtype":"float32","shape":[64],"name":"bn_stage1_block1_branch2b/bn_stage1_block1_branch2b/mul"},{"dtype":"float32","shape":[64],"name":"bn_stage1_block1_branch2b/bn_stage1_block1_branch2b/sub"},{"dtype":"float32","shape":[1,1,64,256],"name":"conv_stage1_block1_branch2c/weights"},{"dtype":"float32","shape":[256],"name":"conv_stage1_block1_branch2c/biases"},{"dtype":"float32","shape":[256],"name":"bn_stage1_block1_branch2c/bn_stage1_block1_branch2c/mul"},{"dtype":"float32","shape":[1,1,256,64],"name":"conv_stage1_block2_branch2a/weights"},{"dtype":"float32","shape":[64],"name":"conv_stage1_block2_branch2a/biases"},{"dtype":"float32","shape":[64],"name":"bn_stage1_block2_branch2a/bn_stage1_block2_branch2a/mul"},{"dtype":"float32","shape":[64],"name":"bn_stage1_block2_branch2a/bn_stage1_block2_branch2a/sub"},{"dtype":"float32","shape":[3,3,64,64],"name":"conv_stage1_block2_branch2b/weights"},{"dtype":"float32","shape":[64],"name":"conv_stage1_block2_branch2b/biases"},{"dtype":"float32","shape":[64],"name":"bn_stage1_block2_branch2b/bn_stage1_block2_branch2b/mul"},{"dtype":"float32","shape":[64],"name":"bn_stage1_block2_branch2b/bn_stage1_block2_branch2b/sub"},{"dtype":"float32","shape":[1,1,64,256],"name":"conv_stage1_block2_branch2c/weights"},{"dtype":"float32","shape":[256],"name":"conv_stage1_block2_branch2c/biases"},{"dtype":"float32","shape":[256],"name":"bn_stage1_block2_branch2c/bn_stage1_block2_branch2c/mul"},{"dtype":"float32","shape":[1,1,256,64],"name":"conv_stage1_block3_branch2a/weights"},{"dtype":"float32","shape":[64],"name":"conv_stage1_block3_branch2a/biases"},{"dtype":"float32","shape":[64],"name":"bn_stage1_block3_branch2a/bn_stage1_block3_branch2a/mul"},{"dtype":"float32","shape":[64],"name":"bn_stage1_block3_branch2a/bn_stage1_block3_branch2a/sub"},{"dtype":"float32","shape":[3,3,64,64],"name":"conv_stage1_block3_branch2b/weights"},{"dtype":"float32","shape":[64],"name":"conv_stage1_block3_branch2b/biases"},{"dtype":"float32","shape":[64],"name":"bn_stage1_block3_branch2b/bn_stage1_block3_branch2b/mul"},{"dtype":"float32","shape":[64],"name":"bn_stage1_block3_branch2b/bn_stage1_block3_branch2b/sub"},{"dtype":"float32","shape":[1,1,64,256],"name":"conv_stage1_block3_branch2c/weights"},{"dtype":"float32","shape":[256],"name":"conv_stage1_block3_branch2c/biases"},{"dtype":"float32","shape":[256],"name":"bn_stage1_block3_branch2c/bn_stage1_block3_branch2c/mul"},{"dtype":"float32","shape":[1,1,256,128],"name":"conv_stage2_block0_branch2a/weights"},{"dtype":"float32","shape":[128],"name":"conv_stage2_block0_branch2a/biases"},{"dtype":"float32","shape":[128],"name":"bn_stage2_block0_branch2a/bn_stage2_block0_branch2a/mul"},{"dtype":"float32","shape":[128],"name":"bn_stage2_block0_branch2a/bn_stage2_block0_branch2a/sub"},{"dtype":"float32","shape":[3,3,128,128],"name":"conv_stage2_block0_branch2b/weights"},{"dtype":"float32","shape":[128],"name":"conv_stage2_block0_branch2b/biases"},{"dtype":"float32","shape":[128],"name":"bn_stage2_block0_branch2b/bn_stage2_block0_branch2b/mul"},{"dtype":"float32","shape":[128],"name":"bn_stage2_block0_branch2b/bn_stage2_block0_branch2b/sub"},{"dtype":"float32","shape":[1,1,128,512],"name":"conv_stage2_block0_branch2c/weights"},{"dtype":"float32","shape":[512],"name":"conv_stage2_block0_branch2c/biases"},{"dtype":"float32","shape":[512],"name":"bn_stage2_block0_branch2c/bn_stage2_block0_branch2c/mul"},{"dtype":"float32","shape":[1,1,512,128],"name":"conv_stage2_block1_branch2a/weights"},{"dtype":"float32","shape":[128],"name":"conv_stage2_block1_branch2a/biases"},{"dtype":"float32","shape":[128],"name":"bn_stage2_block1_branch2a/bn_stage2_block1_branch2a/mul"},{"dtype":"float32","shape":[128],"name":"bn_stage2_block1_branch2a/bn_stage2_block1_branch2a/sub"},{"dtype":"float32","shape":[3,3,128,128],"name":"conv_stage2_block1_branch2b/weights"},{"dtype":"float32","shape":[128],"name":"conv_stage2_block1_branch2b/biases"},{"dtype":"float32","shape":[128],"name":"bn_stage2_block1_branch2b/bn_stage2_block1_branch2b/mul"},{"dtype":"float32","shape":[128],"name":"bn_stage2_block1_branch2b/bn_stage2_block1_branch2b/sub"},{"dtype":"float32","shape":[1,1,128,512],"name":"conv_stage2_block1_branch2c/weights"},{"dtype":"float32","shape":[512],"name":"conv_stage2_block1_branch2c/biases"},{"dtype":"float32","shape":[512],"name":"bn_stage2_block1_branch2c/bn_stage2_block1_branch2c/mul"},{"dtype":"float32","shape":[1,1,512,128],"name":"conv_stage2_block2_branch2a/weights"},{"dtype":"float32","shape":[128],"name":"conv_stage2_block2_branch2a/biases"},{"dtype":"float32","shape":[128],"name":"bn_stage2_block2_branch2a/bn_stage2_block2_branch2a/mul"},{"dtype":"float32","shape":[128],"name":"bn_stage2_block2_branch2a/bn_stage2_block2_branch2a/sub"},{"dtype":"float32","shape":[3,3,128,128],"name":"conv_stage2_block2_branch2b/weights"},{"dtype":"float32","shape":[128],"name":"conv_stage2_block2_branch2b/biases"},{"dtype":"float32","shape":[128],"name":"bn_stage2_block2_branch2b/bn_stage2_block2_branch2b/mul"},{"dtype":"float32","shape":[128],"name":"bn_stage2_block2_branch2b/bn_stage2_block2_branch2b/sub"},{"dtype":"float32","shape":[1,1,128,512],"name":"conv_stage2_block2_branch2c/weights"},{"dtype":"float32","shape":[512],"name":"conv_stage2_block2_branch2c/biases"},{"dtype":"float32","shape":[512],"name":"bn_stage2_block2_branch2c/bn_stage2_block2_branch2c/mul"},{"dtype":"float32","shape":[1,1,512,128],"name":"conv_stage2_block3_branch2a/weights"},{"dtype":"float32","shape":[128],"name":"conv_stage2_block3_branch2a/biases"},{"dtype":"float32","shape":[128],"name":"bn_stage2_block3_branch2a/bn_stage2_block3_branch2a/mul"},{"dtype":"float32","shape":[128],"name":"bn_stage2_block3_branch2a/bn_stage2_block3_branch2a/sub"},{"dtype":"float32","shape":[3,3,128,128],"name":"conv_stage2_block3_branch2b/weights"},{"dtype":"float32","shape":[128],"name":"conv_stage2_block3_branch2b/biases"},{"dtype":"float32","shape":[128],"name":"bn_stage2_block3_branch2b/bn_stage2_block3_branch2b/mul"},{"dtype":"float32","shape":[128],"name":"bn_stage2_block3_branch2b/bn_stage2_block3_branch2b/sub"},{"dtype":"float32","shape":[1,1,128,512],"name":"conv_stage2_block3_branch2c/weights"},{"dtype":"float32","shape":[512],"name":"conv_stage2_block3_branch2c/biases"},{"dtype":"float32","shape":[512],"name":"bn_stage2_block3_branch2c/bn_stage2_block3_branch2c/mul"},{"dtype":"float32","shape":[1,1,512,128],"name":"conv_stage2_block4_branch2a/weights"},{"dtype":"float32","shape":[128],"name":"conv_stage2_block4_branch2a/biases"},{"dtype":"float32","shape":[128],"name":"bn_stage2_block4_branch2a/bn_stage2_block4_branch2a/mul"},{"dtype":"float32","shape":[128],"name":"bn_stage2_block4_branch2a/bn_stage2_block4_branch2a/sub"},{"dtype":"float32","shape":[3,3,128,128],"name":"conv_stage2_block4_branch2b/weights"},{"dtype":"float32","shape":[128],"name":"conv_stage2_block4_branch2b/biases"},{"dtype":"float32","shape":[128],"name":"bn_stage2_block4_branch2b/bn_stage2_block4_branch2b/mul"},{"dtype":"float32","shape":[128],"name":"bn_stage2_block4_branch2b/bn_stage2_block4_branch2b/sub"},{"dtype":"float32","shape":[1,1,128,512],"name":"conv_stage2_block4_branch2c/weights"},{"dtype":"float32","shape":[512],"name":"conv_stage2_block4_branch2c/biases"},{"dtype":"float32","shape":[512],"name":"bn_stage2_block4_branch2c/bn_stage2_block4_branch2c/mul"},{"dtype":"float32","shape":[1,1,512,128],"name":"conv_stage2_block5_branch2a/weights"},{"dtype":"float32","shape":[128],"name":"conv_stage2_block5_branch2a/biases"},{"dtype":"float32","shape":[128],"name":"bn_stage2_block5_branch2a/bn_stage2_block5_branch2a/mul"},{"dtype":"float32","shape":[128],"name":"bn_stage2_block5_branch2a/bn_stage2_block5_branch2a/sub"},{"dtype":"float32","shape":[3,3,128,128],"name":"conv_stage2_block5_branch2b/weights"},{"dtype":"float32","shape":[128],"name":"conv_stage2_block5_branch2b/biases"},{"dtype":"float32","shape":[128],"name":"bn_stage2_block5_branch2b/bn_stage2_block5_branch2b/mul"},{"dtype":"float32","shape":[128],"name":"bn_stage2_block5_branch2b/bn_stage2_block5_branch2b/sub"},{"dtype":"float32","shape":[1,1,128,512],"name":"conv_stage2_block5_branch2c/weights"},{"dtype":"float32","shape":[512],"name":"conv_stage2_block5_branch2c/biases"},{"dtype":"float32","shape":[512],"name":"bn_stage2_block5_branch2c/bn_stage2_block5_branch2c/mul"},{"dtype":"float32","shape":[1,1,512,256],"name":"conv_stage3_block0_branch2a/weights"},{"dtype":"float32","shape":[256],"name":"conv_stage3_block0_branch2a/biases"},{"dtype":"float32","shape":[256],"name":"bn_stage3_block0_branch2a/bn_stage3_block0_branch2a/mul"},{"dtype":"float32","shape":[256],"name":"bn_stage3_block0_branch2a/bn_stage3_block0_branch2a/sub"},{"dtype":"float32","shape":[3,3,256,256],"name":"conv_stage3_block0_branch2b/weights"},{"dtype":"float32","shape":[256],"name":"conv_stage3_block0_branch2b/biases"},{"dtype":"float32","shape":[256],"name":"bn_stage3_block0_branch2b/bn_stage3_block0_branch2b/mul"},{"dtype":"float32","shape":[256],"name":"bn_stage3_block0_branch2b/bn_stage3_block0_branch2b/sub"},{"dtype":"float32","shape":[1,1,256,1024],"name":"conv_stage3_block0_branch2c/weights"},{"dtype":"float32","shape":[1024],"name":"conv_stage3_block0_branch2c/biases"},{"dtype":"float32","shape":[1024],"name":"bn_stage3_block0_branch2c/bn_stage3_block0_branch2c/mul"},{"dtype":"float32","shape":[1,1,1024,256],"name":"conv_stage3_block1_branch2a/weights"},{"dtype":"float32","shape":[256],"name":"conv_stage3_block1_branch2a/biases"},{"dtype":"float32","shape":[256],"name":"bn_stage3_block1_branch2a/bn_stage3_block1_branch2a/mul"},{"dtype":"float32","shape":[256],"name":"bn_stage3_block1_branch2a/bn_stage3_block1_branch2a/sub"},{"dtype":"float32","shape":[3,3,256,256],"name":"conv_stage3_block1_branch2b/weights"},{"dtype":"float32","shape":[256],"name":"conv_stage3_block1_branch2b/biases"},{"dtype":"float32","shape":[256],"name":"bn_stage3_block1_branch2b/bn_stage3_block1_branch2b/mul"},{"dtype":"float32","shape":[256],"name":"bn_stage3_block1_branch2b/bn_stage3_block1_branch2b/sub"},{"dtype":"float32","shape":[1,1,256,1024],"name":"conv_stage3_block1_branch2c/weights"},{"dtype":"float32","shape":[1024],"name":"conv_stage3_block1_branch2c/biases"},{"dtype":"float32","shape":[1024],"name":"bn_stage3_block1_branch2c/bn_stage3_block1_branch2c/mul"},{"dtype":"float32","shape":[1,1,1024,256],"name":"conv_stage3_block2_branch2a/weights"},{"dtype":"float32","shape":[256],"name":"conv_stage3_block2_branch2a/biases"},{"dtype":"float32","shape":[256],"name":"bn_stage3_block2_branch2a/bn_stage3_block2_branch2a/mul"},{"dtype":"float32","shape":[256],"name":"bn_stage3_block2_branch2a/bn_stage3_block2_branch2a/sub"},{"dtype":"float32","shape":[3,3,256,256],"name":"conv_stage3_block2_branch2b/weights"},{"dtype":"float32","shape":[256],"name":"conv_stage3_block2_branch2b/biases"},{"dtype":"float32","shape":[256],"name":"bn_stage3_block2_branch2b/bn_stage3_block2_branch2b/mul"},{"dtype":"float32","shape":[256],"name":"bn_stage3_block2_branch2b/bn_stage3_block2_branch2b/sub"},{"dtype":"float32","shape":[1,1,256,1024],"name":"conv_stage3_block2_branch2c/weights"},{"dtype":"float32","shape":[1024],"name":"conv_stage3_block2_branch2c/biases"},{"dtype":"float32","shape":[1024],"name":"bn_stage3_block2_branch2c/bn_stage3_block2_branch2c/mul"},{"dtype":"int32","shape":[2],"name":"fc_nsfw/Reshape/shape"},{"dtype":"float32","shape":[1024,2],"name":"fc_nsfw/weights"},{"dtype":"float32","shape":[2],"name":"fc_nsfw/biases"}]}]}